state_agent/state_agent_models/model.pt (torch, 287909 bytes, 7 tensors)

weight f4 [256, 11]
0.3010397 0.28237456 0.20987928 0.00538972 -0.248407 -0.15535131 0.16631731 -0.03592542
0.07992673 -0.013436943 -0.18272325 -0.28861028 0.031811863 -0.08090399 0.07110223 0.27923852
0.04477942 0.08827326 -0.022325486 0.055497795 -0.16282567 -0.19453387 0.14644796 0.0034246147
-0.28553438 0.120039225 -0.21529025 0.003990829 -0.23928669 0.11575192 0.040281385 -0.19903105
-0.22055686 -0.2559378 -0.022075117 0.15037751 -0.09865503 -0.2462083 -0.23840979 -0.18871495
-0.14950722 0.17292807 -0.15689646 -0.16007942 0.24795532 0.24116069 -0.28546742 -0.08946356
0.21828538 -0.15562145 -0.063623086 0.2300511 0.29280597 -0.30105183 0.11777586 0.12812969
-0.29543504 -0.11929801 -0.2792063 -0.012701929 -0.086509615 0.039252043 -0.23963429 0.060188323
-0.13767686 0.07239792 0.2207678 -0.17491232 0.15851963 0.070560575 0.19819963 -0.097797036
-0.18668084 -0.12293734 0.18431658 0.21859986 0.19576415 -0.15761901 0.29428482 -0.053977475
-0.11397715 0.074762166 0.08076969 -0.27349174 0.21093619 0.12407723 0.25837386 -0.093098894
0.26947188 -0.09399377 -0.19544186 0.28124803 0.1878807 0.025291234 0.16411114 0.11372939
-0.07003233 0.07240909 0.026473522 -0.07502279 -0.13125116 -0.030415684 0.29046088 0.30044872
-0.24248533 -0.119233415 -0.19168079 0.26114333 -0.1770784 0.21719491 -0.20317495 0.07669476
0.21527308 -0.2112396 -0.120758146 0.17174712 0.26622897 0.08646649 0.26059508 0.03974369
0.18316543 -0.07598911 -0.091833234 0.09714353 0.07799822 -0.22662765 0.02717477 -0.13938332
-0.088822916 -0.008902341 0.272007 0.016685933 -0.2858386 0.21268171 0.14476004 0.119965404
-0.08747171 -0.04474765 0.3011964 -0.101918295 0.24924111 -0.00792256 0.21843565 0.29671848
-0.2721012 0.11379999 0.043231726 0.028827697 0.19454339 0.037208676 0.14208901 -0.18665892
-0.09848297 0.09833339 0.1682485 -0.20454836 -0.17980236 -0.058002472 -0.030115664 -0.24601042
-0.064293325 -0.064373866 0.2508313 0.25583577 0.17539653 -0.13560086 -0.19053 -0.23385747
-0.2992659 0.026051879 -0.07085639 0.27081507 0.037561327 0.028983891 -0.020353049 -0.053940877
-0.29032207 -0.16109233 0.22842866 -0.03784433 0.2235198 0.08267048 0.1270147 0.14780626
-0.1536966 0.10990891 0.07020131 0.008170038 0.28942776 -0.288131 0.16884002 -0.07331288
0.07752752 0.17469183 0.084929794 -0.111670405 0.18674815 0.12312403 -0.18725136 0.20160955
0.20023662 -0.11301823 0.21407312 -0.2414262 0.21316391 0.17601675 -0.2498411 -0.09715797
0.2864238 -0.16509691 -0.29336435 0.29504085 -0.18962851 0.26440692 -0.12247799 -0.29476964
0.09409556 -0.074105024 0.19727013 0.18872371 0.28058255 -0.0064397156 -0.2910657 -0.044384867
0.28174692 -0.10505183 0.25169933 0.01868254 0.0031602383 -0.29968274 0.037801325 0.10734078
0.01291585 0.04806009 -0.14168616 -0.17410605 0.13733527 -0.29315466 0.29443312 -0.06270054
0.22627264 0.24347335 -0.052001864 -0.12978408 -0.29393375 -0.23518226 -0.22030428 -0.22494498
0.02647996 -0.039149582 0.07823944 0.018709064 -0.090380356 0.023329794 0.006238222 -0.24507937
00000000: e021 9a3e 6693 903e 98ea 563e 409c b03b
00000010: 685e 7ebe 6a14 1fbe 164f 2a3e 8826 13bd
00000020: a0b0 a33d a026 5cbc ce1b 3bbe bac4 93be
00000030: 284d 023d feb0 a5bd 0c9e 913d 5af8 8e3e
00000040: a06a 373d 9cc8 b43d f0e3 b6bc a851 633d
00000050: c6bb 26be e333 47be 74f6 153e 806f 603b
00000060: 9031 92be 20d7 f53d 0c75 5cbe 80c5 823b
00000070: 9207 75be 580f ed3d 18fe 243d ccce 4bbe
00000080: a8d9 61be 480a 83be e0d6 b4bc 90fc 193e
00000090: a60b cabd 071e 7cbe b221 74be 7e3e 41be
000000a0: 6c18 19be 0e14 313e 77a9 20be dceb 23be
000000b0: 00e8 7d3e d4f2 763e c928 92be ac38 b7bd
000000c0: 3486 5f3e 3b5b 1fbe d24c 82bd 8492 6b3e
000000d0: aaea 953e 7723 9abe 7834 f13d 6e34 033e
000000e0: 4343 97be 8452 f4bd 21f4 8ebe c01b 50bc
000000f0: f42b b1bd c0c6 203d b162 75be 0888 763d
00000100: 2afb 0cbe 5c45 943d f410 623e 371c 33be
00000110: f852 223e 1082 903d d8f4 4a3e d049 c8bd
00000120: 4329 3fbe 92c6 fbbd 7cbd 3c3e a4d8 5f3e
00000130: 6676 483e e166 21be 80ac 963e 7c17 5dbd
00000140: da6c e9bd e81c 993d 946a a53d 1c07 8cbe
00000150: a8ff 573e 341c fe3d 9449 843e a2aa bebd
00000160: 38f8 893e ce7f c0bd e921 48be beff 8f3e
00000170: cc63 403e 902f cf3c c00c 283e f4ea e83d
00000180: 1c6d 8fbd 384b 943d 00df d83c 8ca5 99bd
00000190: b466 06be 502a f9bc 4ab7 943e 6ad4 993e
000001a0: 134e 78be a630 f4bd f847 44be 94b4 853e
000001b0: 0a54 35be 5868 5e3e 180d 50be 2412 9d3d
000001c0: 8c70 5c3e 324f 58be 0c50 f7bd 7ade 2f3e
000001d0: 2a4f 883e 5815 b13d b86c 853e 48ca 223d
000001e0: b88f 3b3e 2ea0 9bbd 1013 bcbd 30f3 c63d
000001f0: 88bd 9f3d 1411 68be a09d de3c 80ba 0ebe
00000200: cae8 b5bd 20db 11bc 8044 8b3e f0b0 883c
00000210: 7059 92be 3cc9 593e fa3b 143e 6cb0 f53d
00000220: 5e24 b3bd 5049 37bd 6a36 9a3e 8aba d0bd
00000230: 1039 7f3e a0cd 01bc 98ad 5f3e 7ceb 973e
00000240: d950 8bbe f80f e93d c013 313d 1028 ec3c
00000250: 6236 473e 2068 183d c87f 113e 8423 3fbe
00000260: 70b1 c9bd 0463 c93d 5649 2c3e 2075 51be
00000270: 1c1e 38be 0094 6dbd 20b5 f6bc 28ea 7bbe
00000280: 38ac 83bd 72d6 83bd f66c 803e e8fc 823e
00000290: 269b 333e f4da 0abe 4c1a 43be 5578 6fbe
000002a0: 6139 99be c06a d53c 281d 91bd 46a8 8a3e
000002b0: e8d9 193d a06f ed3c 70bb a6bc 1cf1 5cbd
000002c0: 18a5 94be 63f5 24be 34e9 693e a802 1bbd
000002d0: 60e2 643e 244f a93d 2410 023e 865a 173e
000002e0: a462 1dbe ec17 e13d b4c5 8f3d a0db 053c
000002f0: e02f 943e e885 93be 66e4 2c3e 1025 96bd
00000300: c0c6 9e3d 6ae2 323e acef ad3d 74b3 e4bd
00000310: e83a 3f3e 7428 fc3d d2be 3fbe bc72 4e3e
00000320: d40a 4d3e 1a76 e7bd fc35 5b3e 6e38 77be
00000330: a447 5a3e bc3d 343e 58d6 7fbe c2fa c6bd
00000340: 24a6 923e 2a0f 29be da33 96be 980f 973e
00000350: fa2d 42be 5860 873e bed5 fabd 0cec 96be
00000360: 2cb5 c03d 60c4 97bd 2e01 4a3e ca40 413e
00000370: 84a8 8f3e 4004 d3bb 9006 95be e8cc 35bd
00000380: 2241 903e 6a25 d7bd bcde 803e 200c 993c
00000390: 001c 4f3b 0470 99be 90d5 1a3d 7cd5 db3d
000003a0: 009d 533c a8da 443d 2d16 11be db48 32be
000003b0: 9ea1 0c3e 5e18 96be f0bf 963e 2469 80bd
000003c0: 04b4 673e 1451 793e e8ff 54bd 1ee6 04be
000003d0: 7c7e 96be 9ed3 70be 7297 61be fa57 66be
000003e0: 80ec d83c 505b 20bd 003c a03d c043 993c
000003f0: 5619 b9bd 201e bf3c 006a cc3b 16f6 7abe

bias f4 [256]
0.18870574 0.25328583 -0.28964478 0.240888 -0.020326853 0.12512997 0.23286104 -0.058108002
0.2728299 0.21852499 0.12439191 -0.003077209 -0.1463031 -0.023361802 0.13803098 -0.2564765
0.018598467 0.2493136 -0.2748572 0.09799838 0.27649975 -0.08487134 0.087928295 0.20259011
-0.29986447 -0.28073183 -0.036726147 0.1547943 0.14558735 0.010016054 -0.21021812 0.23184246
-0.14588566 -0.2319498 0.116981655 -0.08850452 -0.18104124 0.027338892 0.105098516 0.07016501
0.12346402 0.064932644 0.27637613 0.014937162 0.077771455 -0.07277934 -0.28550103 0.22742248
-0.17126875 -0.14369296 0.17746341 0.2951933 -0.059076697 0.068255305 -0.026132584 -0.09006107
-0.253752 0.07476795 -0.26236522 -0.23734573 0.15124702 0.1757454 0.0022106767 -0.27491447
-0.26437807 0.100606054 0.009566069 0.11541021 -0.23301001 0.09348938 0.09275648 0.24108607
0.18538743 0.13000283 -0.121853545 0.12661374 0.2608729 -0.04097569 0.020036012 0.15689442
-0.16036168 0.22441238 -0.049824864 0.039860517 0.09686959 0.24409235 -0.0612652 0.03425929
-0.062690616 -0.03046766 -0.08974938 0.23559064 -0.06200227 0.27093172 -0.086884186 -0.18530972
0.25650758 0.28063494 -0.22801548 0.063598245 0.2860551 0.20356303 0.27804273 0.14523375
0.024157971 0.2633708 -0.08742653 -0.28859878 0.13473359 -0.2900338 -0.09135312 0.27312446
-0.19128987 0.03398785 0.005343884 -0.25124213 -0.081625625 -0.0012652278 -0.1347906 -0.005826175
-0.23596162 -0.24219508 -0.13493535 0.10561347 -0.044753462 -0.15290369 0.08534098 0.07251307
0.20895666 0.27600658 -0.01224187 0.10070589 0.29915226 0.24213946 0.17194065 0.050550967
0.037658036 -0.11773524 0.11414695 -0.29400495 -0.2573447 0.046073318 0.15329793 -0.11014031
0.07744971 -0.30143803 -0.27699983 -0.1815536 -0.012392402 -0.27628717 -0.22193116 0.09356457
-0.20479462 0.118652105 -0.13747622 -0.11816178 0.2752952 0.019248039 -0.124025255 0.18414694
-0.29806146 -0.124150485 -0.21725208 0.17175767 -0.15105824 -0.19004074 -0.20190012 -0.21903437
0.12026164 -0.15601683 -0.086199045 0.020021468 0.18354511 0.0990316 0.18589109 -0.16152246
0.1326654 -0.25100267 0.057490498 0.031992674 -0.29599842 -0.06902434 0.04683438 0.2166053
0.08951953 0.010916412 -0.13197929 0.078950524 -0.21166712 -0.2282734 -0.16090287 0.24169505
-0.13268942 0.13394475 -0.12974587 0.10784465 0.06431347 -0.18637607 -0.06690857 0.059294045
0.026227295 0.101667225 -0.24358356 -0.17846319 -0.16773185 -0.23521285 -0.29859942 -0.06867282
0.066588104 -0.09637834 0.27714872 -0.15673439 -0.04502675 0.11021677 -0.1541314 -0.19052133
-0.13865152 -0.026535809 0.0008428395 0.16352129 0.032397807 0.07726839 -0.15754947 0.10149816
0.2553109 -0.17441551 0.027820557 0.0029520392 -0.1187823 0.21216983 0.012957007 0.2868529
0.22660649 -0.12841299 -0.16756396 0.043317586 0.27988815 0.11093444 -0.035526425 0.14240399
0.10869604 0.112780005 0.19949639 0.032221735 0.22286916 -0.19174546 0.24803752 -0.025581539
-0.29144838 -0.035398394 0.24809396 0.23285025 0.14832115 0.020647049 0.095992416 0.16566277
00000000: 143c 413e aeae 813e 524c 94be 58ab 763e
00000010: 8084 a6bc 1222 003e 2073 6e3e a802 6ebd
00000020: 5cb0 8b3e 04c5 5f3e 30c1 fe3d 00ab 49bb
00000030: 7bd0 15be 4061 bfbc fe57 0d3e e350 83be
00000040: d05b 983c 104c 7f3e 15ba 8cbe 60b3 c83d
00000050: 6091 8d3e 06d1 adbd c013 b43d c873 4f3e
00000060: d687 99be 15bc 8fbe 286e 16bd 6682 1e3e
00000070: da14 153e 601a 243c 6b43 57be 1c68 6d3e
00000080: 0d63 15be 4084 6dbe 1494 ef3d dc41 b5bd
00000090: e062 39be d0f5 df3c e43d d73d acb2 8f3d
000000a0: b4da fc3d 68fb 843d 2c81 8d3e 00bb 743c
000000b0: a446 9f3d 560d 95bd 312d 92be 70e1 683e
000000c0: 1361 2fbe 3f24 13be f8b8 353e 9423 973e
000000d0: 68fa 71bd 70c9 8b3d 0014 d6bc f071 b8bd
000000e0: c8eb 81be f01f 993d bc54 86be c20a 73be
000000f0: 80e0 1a3e 9af6 333e 00e1 103b 97c1 8cbe
00000100: 905c 87be 8c0a ce3d 00bb 1c3c 305c ec3d
00000110: 2d9a 6ebe 5c77 bf3d 1cf7 bd3d 44df 763e
00000120: 34d6 3d3e 761f 053e 5a8e f9bd 08a7 013e
00000130: 2291 853e 20d6 27bd 9022 a43c eea8 203e
00000140: da35 24be 5ccc 653e 2815 4cbd c844 233d
00000150: 9063 c63d 58f3 793e 38f1 7abd 7853 0c3d
00000160: f063 80bd 5097 f9bc 86ce b7bd ac3e 713e
00000170: 18f6 7dbd 90b7 8a3e 56f0 b1bd d5c1 3dbe
00000180: f654 833e 62af 8f3e e47c 69be cc3f 823d
00000190: d075 923e d472 503e 9e5b 8e3e 28b8 143e
000001a0: f0e6 c53c 8ad8 863e ae0c b3bd 38c3 93be
000001b0: 9af7 093e 4f7f 94be 5817 bbbd f8d6 8b3e
000001c0: 7ee1 43be d836 0b3d c01b af3b cfa2 80be
000001d0: 562b a7bd 00d6 a5ba 8c06 0abe 80e9 bebb
000001e0: ec9f 71be fd01 78be 7e2c 0abe e04b d83d
000001f0: 684f 37bd c992 1cbe 40c7 ae3d bc81 943d
00000200: bcf8 553e bc50 8d3e 2092 48bc e43e ce3d
00000210: 7c2a 993e 68f3 773e 3611 303e 880e 4f3d
00000220: 503f 1a3d 2c1f f1bd e0c5 e93d d187 96be
00000230: afc2 83be 60b7 3c3d 22fa 1c3e 3e91 e1bd
00000240: f49d 9e3d 1656 9abe ecd2 8dbe 30e9 39be
00000250: 8009 4bbc 8375 8dbe ec41 63be c89e bf3d
00000260: aeb5 51be e0ff f23d 91c6 0cbe cefe f1bd
00000270: 7ef3 8c3e 10ae 9d3c f400 febd 0491 3c3e
00000280: 839b 98be 9c42 febd 5477 5ebe 3ee1 2f3e
00000290: 03af 1abe 0a9a 42be e8be 4ebe 8c4a 60be
000002a0: bc4b f63d e0c2 1fbe 2089 b0bd 1004 a43c
000002b0: 40f3 3b3e 14d1 ca3d 3c5a 3e3e 2566 25be
000002c0: 70d9 073e 6c83 80be 287b 6b3d c00a 033d
000002d0: 1b8d 97be a25c 8dbd 68d5 3f3d c8cd 5d3e
000002e0: 0456 b73d c0da 323c 9425 07be d0b0 a13d
000002f0: 44bf 58be 81c0 69be b9c3 24be e87e 773e
00000300: bcdf 07be d028 093e 1adc 04be a8dd dc3d
00000310: c8b6 833d 5ed9 3ebe 5c07 89bd 50de 723d
00000320: a0da d63c e836 d03d f86d 79be 0ebf 36be
00000330: e6c1 2bbe a3db 70be 06e2 98be 56a4 8cbd
00000340: 585f 883d 0262 c5bd 70e6 8d3e fb7e 20be
00000350: f86d 38bd 54b9 e13d 9fd4 1dbe 0618 43be
00000360: aafa 0dbe a061 d9bc 00f2 5c3a 2072 273e
00000370: 90b3 043d e43e 9e3d a654 21be 44de cf3d
00000380: 1cb8 823e fb99 32be f0e7 e33c 0077 413b
00000390: 2244 f3bd 0c43 593e a049 543c 62de 923e
000003a0: 880b 683e b27e 03be e395 2bbe c86d 313d
000003b0: 804d 8f3e 9831 e33d 2884 11bd 5ad2 113e
000003c0: 089c de3d 34f9 e63d c848 4c3e f0fa 033d
000003d0: d037 643e ec58 44be 8cfd 7d3e 6090 d1bc
000003e0: b938 95be e8fd 10bd 580c 7e3e 4c70 6e3e
000003f0: 80e1 173e 0024 a93c ac97 c43d 80a3 293e

weight f4 [256, 256]
-0.044856578 0.056928396 0.062123455 0.051544398 -0.014451183 0.057141826 0.026535496 0.043541186
0.0015233308 0.06159538 -0.044090442 0.059790783 0.05026003 -0.022521406 0.040640153 0.011712961
0.014186539 -0.018277764 0.04723084 0.0028794557 -0.04547388 0.045577206 -0.027196676 0.056428432
-0.00194031 0.050194725 0.059341744 -0.027320407 -0.022466354 -0.023730926 -0.013796255 -0.058421582
-0.02947557 -0.05727245 0.030503958 0.036853828 -0.020553693 -0.042042866 -0.0073596984 -0.052446514
0.010590702 -0.01768937 0.014108516 0.00905709 -0.03360077 0.009408079 0.032665685 -0.05711449
-0.0018901676 -0.0021783262 0.031959444 0.04565353 -0.044041388 0.021083273 -0.011092953 0.019659773
0.04741779 -0.0044471994 0.024898417 -0.038511023 0.010619469 -0.05554183 0.05570712 -0.019450516
-0.027584217 0.03858012 -0.0027991906 0.059763953 -0.0054587573 0.009005383 0.0032920167 0.008591056
0.036347166 -0.022302106 0.051857732 0.03484103 -0.023770064 -0.024334043 -0.007171601 -0.05032126
0.00018013269 0.015950046 -0.047181264 0.0011660159 -0.060854554 -0.0023795515 0.032124214 0.03261189
0.052756965 0.041481033 -0.042548373 0.048981234 0.0046096817 0.05346676 -0.010963522 -0.042499103
-0.0016074628 0.026933908 -0.061195128 -0.04189924 -0.00876078 0.04730939 0.029504381 0.018040486
-0.053882062 0.00024287403 -0.026339129 0.014623806 -0.023544177 -0.013776533 -0.016424812 0.027195215
-0.03575498 0.012173779 0.008037768 -0.044115268 0.05082129 0.0012832507 -0.06095933 -0.05799883
-0.05984377 0.017653279 0.020332888 0.020370424 0.055898502 -0.023567952 0.059657305 0.00076805055
0.03589435 -0.010633729 0.034752317 0.029510252 -0.045196243 -0.007575661 0.051726043 0.028826654
0.030764148 0.010994293 0.0061045587 0.056438856 -0.05757147 -0.023835257 -0.021301039 0.045708187
0.031364962 -0.014525332 0.033097275 0.01522959 -0.021968126 0.0059432983 0.049634345 0.05682563
-0.03576862 0.03899491 -0.0557537 0.04514624 0.060828052 -0.029710568 -0.061762206 0.0016867444
0.02116435 0.053287014 0.058700077 -0.02571877 -0.019007295 -0.038169913 -0.053661212 -0.004437022
-0.055457085 0.050186858 0.060970098 0.013355315 -0.0020235404 0.019673944 0.046072237 -0.018682182
0.028377622 0.013857648 -0.012097903 -0.04679271 -0.054819845 -0.049918555 0.021201566 -0.02190435
0.02077733 -0.011334345 -0.059477225 0.03680782 0.03802465 -0.015486248 -0.04955238 0.039784044
-0.0363686 0.013962112 0.013253257 0.04227324 -0.00092570484 0.016606592 0.01745873 -0.011271432
0.007413879 -0.0029946119 0.040552676 -0.005080901 0.05720307 0.015095919 0.029401615 0.025777131
-0.04781501 -0.001295656 0.041105993 -0.0595719 0.034148328 -0.05285292 0.03191846 -0.03573396
0.010836802 0.00096811354 0.054137684 -0.029613346 -0.061511196 0.0019680709 -0.0383996 0.030629389
-0.021737322 -0.008348957 -0.020723984 -0.057226323 0.062033363 0.023303106 0.05197729 -0.049017422
-0.03175305 0.016583122 0.05673433 -0.010452338 -0.042323984 0.0399756 0.010285512 0.022390217
0.02031608 0.053305246 0.042737246 0.042738236 0.028559744 0.013704225 -0.02306594 -0.029217802
0.031173661 -0.014786169 0.038248293 0.033424564 -0.0017131343 0.03338992 0.03125667 -0.051493198
00000000: 88bb 37bd c02d 693d 2a75 7e3d 3820 533d
00000010: a8c4 6cbc 8c0d 6a3d f860 d93c 3e58 323d
00000020: 80aa c73a 704b 7c3d 2e98 34bd 2ee7 743d
00000030: 76dd 4d3d d07e b8bc 4a76 263d b8e7 3f3c
00000040: a86e 683c 40bb 95bc 2075 413d 40b5 3c3b
00000050: d242 3abd 2aaf 3a3d 90cb debc 8021 673d
00000060: 0052 feba fc98 4d3d 5410 733d 0ccf dfbc
00000070: 5c0b b8bc 5c67 c2bc b009 62bc 784b 6fbd
00000080: c076 f1bc 8496 6abd 70e3 f93c 0af4 163d
00000090: 3860 a8bc 2435 2cbd a029 f1bb 28d2 56bd
000000a0: a084 2d3c 4ce9 90bc 6827 673c 3064 143c
000000b0: f6a0 09bd 5824 1a3c 74cc 053d e2f0 69bd
000000c0: 80bf f7ba 40c2 0ebb e8e7 023d 32ff 3a3d
000000d0: be64 34bd d4b6 ac3c 38bf 35bc 880d a13c
000000e0: 2839 423d d0b9 91bb c4f7 cb3c bcbd 1dbd
000000f0: 48fd 2d3c d47f 63bd 262d 643d b056 9fbc
00000100: 4cf8 e1bc 3006 1e3d a072 37bb 0ccb 743d
00000110: 60df b2bb 508b 133c e0be 573b 80c1 0c3c
00000120: c4e0 143d e8b2 b6bc c668 543d 78b5 0e3d
00000130: 70b9 c2bc 3058 c7bc c0ff eabb aa1d 4ebd
00000140: 00e2 3c39 aca9 823c 2441 41bd 00d5 983a
00000150: a042 79bd 40f2 1bbb ae94 033d 0c94 053d
00000160: b017 583d 04e8 293d 3447 2ebd 8ca0 483d
00000170: d00c 973b f6ff 5a3d 58a0 33bc 8a13 2ebd
00000180: 80b1 d2ba 80a4 dc3c bea7 7abd 8a9e 2bbd
00000190: 6089 0fbc 7ec7 413d 2cb3 f13c a4c9 933c
000001a0: 70b3 5cbd 00ac 7e39 28c5 d7bc b098 6f3c
000001b0: b8df c0bc f8b6 61bc 548d 86bc 80c8 de3c
000001c0: d073 12bd 8874 473c d8b0 033c 36b2 34bd
000001d0: fc29 503d c032 a83a 7eb0 79bd 2e90 6dbd
000001e0: be1e 75bd 9c9d 903c 2891 a63c e0df a63c
000001f0: d4f5 643d 9411 c1bc 385b 743d 0057 493a
00000200: f405 133d 1839 2ebc 7258 0e3d 7cbf f13c
00000210: b21f 39bd 403d f8bb b0de 533d e025 ec3c
00000220: 1805 fc3c 6821 343c c008 c83b 6e2c 673d
00000230: 10d0 6bbd 2842 c3bc 847f aebc 8238 3b3d
00000240: 8c78 003d a8fb 6dbc 0291 073d 8885 793c
00000250: 80f6 b3bc 00c0 c23b 624d 4b3d fec1 683d
00000260: 1e82 12bd 20b9 1f3d fe5d 64bd 44eb 383d
00000270: d626 793d 9463 f3bc 5efa 7cbd c015 dd3a
00000280: dc60 ad3c 7c43 5a3d 7e6f 703d 2cb0 d2bc
00000290: 30b5 9bbc 0e58 1cbd dccb 5bbd 7064 91bb
000002a0: f826 63bd bc90 4d3d c8bb 793d 40d0 5a3c
000002b0: 609d 04bb 402b a13c 3eb6 3c3d 600b 99bc
000002c0: 3078 e83c 300b 633c 4836 46bc b6a9 3fbd
000002d0: c68a 60bd 6677 4cbd e8ae ad3c c070 b3bc
000002e0: 3835 aa3c b0b3 39bc 649e 73bd ccc3 163d
000002f0: bcbf 1b3d 08ba 7dbc 70f7 4abd 98f4 223d
00000300: 3ef7 14bd 58c1 643c 3024 593c b426 2d3d
00000310: 00ab 72ba 8c0a 883c 9c05 8f3c d0ab 38bc
00000320: 20f0 f23b 4041 44bb 901a 263d b07d a6bb
00000330: c44d 6a3d e054 773c a8db f03c 902a d33c
00000340: acd9 43bd 00d3 a9ba c25e 283d aa01 74bd
00000350: 1edf 0b3d 4e7c 58bd eebc 023d c65d 12bd
00000360: d88c 313c 00c9 7d3a 7abf 5d3d b097 f2bc
00000370: 2af3 7bbd c0fa 003b e648 1dbd 7cea fa3c
00000380: 7812 b2bc 10ca 08bc 58c5 a9bc 2666 6abd
00000390: b216 7e3d 28e6 be3c 24e6 543d 7ec6 48bd
000003a0: 7c0f 02bd 54d9 873c 4262 683d 4840 2bbc
000003b0: ea5b 2dbd 74bd 233d 9084 283c b06b b73c
000003c0: e86d a63c 9a56 5a3d 400d 2f3d 4a0e 2f3d
000003d0: 20f6 e93c b087 603c c8f4 bcbc 2c5a efbc
000003e0: e85f ff3c b041 72bc 3eaa 1c3d 32e8 083d
000003f0: 408b e0ba dec3 083d fe06 003d 88ea 52bd

bias f4 [256]
-0.017666116 0.0007232651 0.058124565 0.007190548 -0.0009659156 0.020510517 0.048428565 -0.016731285
0.03438612 0.056882612 -0.053482696 0.04739303 0.041811652 -0.01177448 -0.009606458 0.05859725
0.041732468 -0.021388248 0.04403355 -0.00012270361 0.039130844 0.030348897 -0.023207694 0.0034772307
-0.037310146 0.04147251 -0.008677244 0.020013846 -0.055081323 -0.018603288 -0.032832123 0.0006043315
0.030428492 0.04317014 -0.028127514 0.021596357 0.005950354 0.01798737 -0.020354643 0.05707719
-0.05032964 -0.03597901 0.028321952 0.06054464 -0.059267938 -0.037539147 -0.012381427 0.041605905
0.042896636 0.045878634 -0.009651087 0.060242116 0.056426086 0.009230636 0.032638505 -0.047352463
0.009768471 -0.035649925 -0.008821137 0.015875444 -0.024311692 -0.051121958 0.0021330565 -0.03760864
0.03384687 -0.008711733 0.010947056 0.0063953996 -0.007172182 0.02778297 -0.056884192 -0.008904435
0.059886687 -0.03937547 0.03124711 -0.037622496 -0.033538833 0.008228235 -0.0031512156 0.058199823
0.02861648 0.0027227998 0.0034933686 0.05434887 -0.018073343 -0.050392874 0.013438858 -0.049532846
-0.061754182 -0.045029745 -0.04657892 0.027880661 -0.053114578 0.045907125 0.04411739 0.06168385
-0.06056495 0.019136481 -0.0127557665 0.054773152 -0.017626159 -0.06173797 0.012659341 -0.011476591
0.014995009 -0.01330734 -0.0077015907 0.0016800389 0.061958402 0.0298656 0.05906322 -0.03749405
-0.017715797 0.031692572 -0.009469315 0.021986216 0.00041303784 0.00890702 0.06008424 0.031811953
0.03970424 0.01062949 0.021111287 0.048241146 -0.062360145 -0.030262373 -0.006388709 -0.0147560015
-0.0158607 0.0158211 -0.050433613 0.05499065 -0.051411517 0.045844123 0.03765879 -0.039981
0.022121318 -0.048328266 -0.038434803 -0.0046983287 0.0072748587 -0.04155819 -0.05374773 0.03626337
-0.010823309 -0.013539419 -0.061685413 0.043691687 -0.028667063 0.042326085 -0.056154504 0.0387152
-0.015568823 -0.006621197 -0.017159916 0.016138427 0.022386983 -0.027084522 -0.012292832 -0.030745067
-0.00054451823 -0.04802476 -0.048161253 0.041775465 0.021874346 -0.02324421 -0.039615646 -0.026673578
-0.053149633 0.025122158 0.003086932 0.025013596 0.043521225 0.043931656 -0.00066208094 0.009475388
0.028563611 -0.026282765 -0.03015118 0.015169807 -0.049000323 -0.037810236 0.0047178194 0.029162988
-0.017538153 -0.032437064 -0.0063914508 0.042527795 -0.032012567 0.05680252 0.03924001 -0.030721001
-0.025736168 0.010767199 -0.0038017333 0.018403381 -0.009423003 0.036832765 -0.0056411326 -0.055858046
0.055037044 0.040174693 0.030198105 -0.058366954 -0.046397544 -0.038964525 0.017542385 0.034808964
-0.037601806 0.033774927 0.053799048 0.044253856 -0.020196788 0.029012255 -0.0514965 0.029884346
0.046748616 0.051152274 0.031977437 -0.048916116 -0.01273188 0.020034283 -0.0031079203 0.023364611
0.014721729 0.0011475682 0.011925347 -0.0028309822 0.01997532 -0.006802559 0.056388125 -0.027199008
-0.0032939687 0.06105955 0.049379416 0.0010558292 -0.052234866 0.0109710395 0.009575844 -0.0067517757
-0.054514334 -0.017201908 0.012372591 0.018065788 -0.023401119 -0.055607714 -0.02413857 -0.007622093
0.048448168 0.036861293 -0.007528335 -0.046648994 -0.04519283 -0.028811842 -0.00012022257 0.016753905
00000000: 88b8 90bc 8099 3d3a 0614 6e3d b09e eb3b
00000010: 8035 7dba ac05 a83c 085d 463d 0c10 89bc
00000020: 76d8 0c3d befd 683d ac10 5bbd 321f 423d
00000030: b242 2b3d c0e9 40bc 6864 1dbc ac03 703d
00000040: aaef 2a3d 6836 afbc 865c 343d 00aa 00b9
00000050: aa47 203d 409e f83c 101e bebc 40e2 633b
00000060: 86d2 18bd 14df 293d 002b 0ebc 14f4 a33c
00000070: f49c 61bd ec65 98bc fa7a 06bd 006c 1e3a
00000080: 2c45 f93c 2cd3 303d ac6b e6bc d8ea b03c
00000090: 30fb c23b 405a 933c c8be a6bc c6c9 693d
000000a0: 7426 4ebd ba5e 13bd 7003 e83c a8fd 773d
000000b0: f0c2 72bd a6c2 19bd 78db 4abc f46a 2a3d
000000c0: 62b4 2f3d 3ceb 3b3d 981f 1ebc 70c0 763d
000000d0: 0a1f 673d 183c 173c f4af 053d a8f4 41bd
000000e0: f00b 203c a805 12bd 8886 10bc 380d 823c
000000f0: 5029 c7bc 4265 51bd c0ca 0b3b 840b 1abd
00000100: 04a3 0a3d a8bb 0ebc 485b 333c 8090 d13b
00000110: a004 ebbb 1c99 e33c 66ff 68bd e8e3 11bc
00000120: be4b 753d 2c48 21bd f0f9 ff3c 0c1a 1abd
00000130: 0460 09bd b8cf 063c a084 4ebb f062 6e3d
00000140: 1c6d ea3c 0071 323b 00f1 643b ec9c 5e3d
00000150: 8c0e 94bc c268 4ebd a82e 5c3c f4e2 4abd
00000160: f4f1 7cbd 1c71 38bd 8ac9 3ebd fc65 e43c
00000170: ac8e 59bd 1c09 3c3d 70b4 343d 34a8 7c3d
00000180: f412 78bd 1cc4 9c3c 90fd 50bc d059 603d
00000190: bc64 90bc f4e0 7cbd 2069 4f3c 5008 3cbc
000001a0: a0ad 753c 0807 5abc a05d fcbb c034 dc3a
000001b0: 18c8 7d3d b4a8 f43c 46ec 713d 5c93 19bd
000001c0: b820 91bc 12d0 013d 3025 1bbc 701c b43c
000001d0: 008d d839 c0ee 113c e41a 763d 404d 023d
000001e0: eaa0 223d 5027 2e3c 94f1 ac3c 8298 453d
000001f0: 5a6d 7fbd cce8 f7bc 6058 d1bb 28c3 71bc
00000200: 4cee 81bc 409b 813c 7a93 4ebd e03d 613d
00000210: e294 52bd 0cc7 3b3d 1a40 1a3d 1ec3 23bd
00000220: c437 b53c dcf3 45bd d06d 1dbd 70f4 99bb
00000230: f061 ee3b ec38 2abd 9426 5cbd e688 143d
00000240: 4054 31bc 70d4 5dbc d8a9 7cbd 0ef6 323d
00000250: 30d7 eabc 1e5e 2d3d 4402 66bd d493 1e3d
00000260: 6014 7fbc a0f6 d8bb f492 8cbc bc34 843c
00000270: e864 b73c 5ce0 ddbc e067 49bc 14dd fbbc
00000280: 00be 0eba 9cb5 44bd bc44 45bd c01c 2b3d
00000290: d431 b33c a46a bebc 0444 22bd 8c82 dabc
000002a0: 6eb3 59bd fccc cd3c 204e 4a3b 50e9 cc3c
000002b0: 5043 323d aef1 333d 808f 2dba a83e 1b3c
000002c0: 3cfe e93c f44e d7bc 9cff f6bc c88a 783c
000002d0: 90b4 48bd e8de 1abd f097 9a3b 38e7 ee3c
000002e0: 2cac 8fbc badc 04bd 606f d1bb a031 2e3d
000002f0: 9c1f 03bd c2a9 683d 22ba 203d 9caa fbbc
00000300: a8d4 d2bc e868 303c 8026 79bb b0c2 963c
00000310: f062 1abc f4dd 163d 40d9 b8bb 68cb 64bd
00000320: 866e 613d 388e 243d 0462 f73c 3012 6fbd
00000330: 5a0b 3ebd 4499 1fbd 0cb5 8f3c d893 0e3d
00000340: 5a04 1abd 9457 0a3d 645c 5c3d 8843 353d
00000350: bc73 a5bc 1cab ed3c feed 52bd 04d0 f43c
00000360: 7a7b 3f3d 0c85 513d c6fa 023d 445c 48bd
00000370: 6099 50bc f01e a43c 40ae 4bbb 2467 bf3c
00000380: 6833 713c 006a 963a 8862 433c 0088 39bb
00000390: 48a3 a33c 00e8 debb 3cf7 663d 74d0 debc
000003a0: a0df 57bb 9419 7a3d 1242 4a3d c063 8a3a
000003b0: 3af4 55bd e0bf 333c 00e4 1c3c 003e ddbb
000003c0: 6c4a 5fbd 04eb 8cbc 68b6 4a3c b4fe 933c
000003d0: b4b3 bfbc eac4 63bd 40be c5bc c0c2 f9bb
000003e0: 9671 463d defb 163d 40b0 f6bb 0413 3fbd
000003f0: 1e1c 39bd d006 ecbc 0020 fcb8 7c3f 893c

weight f4 [1, 256]
0.013541803 -0.024356969 0.03450179 0.029565208 0.037656486 0.035397515 0.01768256 -0.0027653947
-0.024441227 0.04918973 -0.0115861595 0.041635856 -0.011156969 -0.032543756 0.0413156 0.044644438
0.049389288 -0.016608156 -0.051343933 -0.016221218 0.060788155 0.033356957 -0.018843241 0.019107342
-0.04860369 -0.044154674 -0.051805876 0.051480837 0.0148073435 0.012715258 0.05093982 -0.012380518
-0.02427303 0.020378076 -0.02578006 0.01853057 0.0070664734 0.031023629 -0.030052826 -0.017879538
0.015991643 -0.027393997 -0.060090505 0.046741262 -0.026024088 -0.03950338 0.021222182 -0.025819436
-0.0039811432 0.004285179 -0.015617862 -0.06143324 -0.04686962 -0.026547574 0.0061680675 -0.0012169927
0.035676107 0.04082481 0.024307802 -0.05858241 -0.041772902 0.036376424 0.010861762 0.0490255
0.0095130205 -0.045650892 -0.046890065 -0.011618584 0.011962287 0.010557979 -0.059530504 0.048697494
0.03229721 0.059101798 0.018230826 0.011452533 -0.008147687 0.0131697655 -0.0113494545 -0.055979066
-0.044705354 -0.013179436 0.004248023 0.01978448 -0.04025414 0.04311543 0.0027825683 -0.03489449
-0.043702133 0.016069934 0.0016024783 0.01793389 0.013491593 -0.047506727 0.05058025 0.01429259
0.05424346 -0.009086393 0.020316273 0.012979902 0.024894387 -0.059518464 -0.0020162612 0.03092812
0.04839042 -0.02145484 0.054715283 -0.02837713 0.06142506 -0.05001287 0.053721555 0.029911317
0.060118906 0.02565816 0.05083015 -0.024659887 0.027019799 -0.047513038 0.030001052 0.009285338
0.024747878 0.01472874 0.00016764551 -0.03799229 0.016897082 0.025095217 0.040999837 -0.00511688
-0.032940857 -0.04136116 0.017689869 0.05568973 0.027816758 -0.0028849319 -0.056210898 0.061704993
0.054264836 0.05191668 0.021618828 -0.016750045 -0.013363071 -0.04200449 0.006084487 -0.03663318
0.00070016086 -0.020419784 0.015899345 0.013371997 -0.033223286 -0.044352658 0.025984526 0.053645223
0.061898127 -0.024663024 0.041097686 -0.05347991 -0.007943496 -0.052642494 0.04844124 -0.0062694177
-0.023987405 0.056422293 0.026729159 -0.03497663 -0.023248695 -0.024707071 -0.05158349 0.03820426
0.030623399 0.05284694 0.010322295 -0.014017336 0.03073696 0.058175787 0.011800684 0.029131688
-0.034094766 -0.014733359 -0.054319784 0.0049714968 -0.01529783 0.020542271 -0.0047147498 -0.034424268
-0.024336107 -0.016406551 -0.059256352 -0.04204861 -0.057397053 0.054116733 -0.043272495 0.061594754
0.049923226 -0.053096533 -0.043837726 -0.013839416 0.032185882 0.0073835775 -0.039130032 -0.014350355
-0.04043506 -0.053993896 0.031155854 -0.038563617 -0.0025416613 -0.038573265 -0.05635789 -0.050919585
0.053133294 -0.01036568 0.028450176 0.016445808 0.017571434 0.014473923 -0.016533569 -0.020535208
-0.025721699 -0.03952983 0.034274563 -0.012186527 -0.044253945 -0.0012253672 -0.034350358 -0.00796067
0.059499636 0.021256946 0.04103232 0.0034573823 0.014891066 0.0036427602 -0.042211145 0.058347657
-0.011262521 0.051114015 0.00911542 0.04583463 -0.051372685 0.052851267 -0.02642709 0.035961896
0.031216115 0.014474124 -0.062339917 -0.01738561 -0.042104572 -0.0083787665 0.04094652 0.006851442
-0.038879268 -0.01806239 0.013006747 -0.037499115 -0.008695982 0.06222204 -0.043030225 -0.059607334
00000000: 70de 5d3c 4488 c7bc c051 0d3d bc32 f23c
00000010: b03d 1a3d fcfc 103d 04db 903c a03b 35bb
00000020: f838 c8bc 2c7b 493d e0d3 3dbc 5c8a 2a3d
00000030: b8cb 36bc 9a4c 05bd 8c3a 293d 16dd 363d
00000040: 6c4c 4a3d d40d 88bc 044e 52bd 5ce2 84bc
00000050: 00fd 783d 4ea1 083d 245d 9abc 0087 9c3c
00000060: aa14 47bd 88db 34bd 6632 54bd 92dd 523d
00000070: 809a 723c a853 503c 46a6 503d a8d7 4abc
00000080: 3cd8 c6bc ecef a63c b430 d3bc 6ccd 973c
00000090: e08d e73b 4425 fe3c 5831 f6bc 1c78 92bc
000000a0: e800 833c 6069 e0bc 7621 76bd c473 3f3d
000000b0: 7830 d5bc 4cce 21bd 24da ad3c 4883 d3bc
000000c0: 4074 82bb b06a 8c3b 10e2 7fbc 6ca1 7bbd
000000d0: 5cfa 3fbd 4c7a d9bc 801d ca3b 8083 9fba
000000e0: 1c21 123d ea37 273d 2821 c73c 1cf4 6fbd
000000f0: 101a 2bbd 72ff 143d 88f5 313c f6ce 483d
00000100: 80dc 1b3c 6efc 3abd cc0f 40bd e05b 3ebc
00000110: 78fd 433c 60fb 2c3c 42d6 73bd 0677 473d
00000120: 144a 043d ba14 723d d058 953c 68a3 3b3c
00000130: e07d 05bc 00c6 573c 10f3 39bc 4e4a 65bd
00000140: f61c 37bd 90ee 57bc 0033 8b3b 1013 a23c
00000150: 86e1 24bd ce99 303d c05b 363b 86ed 0ebd
00000160: 0201 33bd 18a5 833c 400a d23a 18ea 923c
00000170: d80b 5d3c 6a96 42bd 3c2d 4f3d 782b 6a3c
00000180: 642e 5e3d 18df 14bc 506e a63c a8a9 543c
00000190: 50ef cb3c a2c9 73bd 4023 04bb f85c fd3c
000001a0: 0835 463d 10c2 afbc 221d 603d 2877 e8bc
000001b0: d898 7b3d 4cda 4cbd 220b 5c3d 9408 f53c
000001c0: 3e3f 763d 1031 d23c 4633 503d 8803 cabc
000001d0: a058 dd3c 089d 42bd c4c4 f53c 8821 183c
000001e0: 10bc ca3c d050 713c 00ca 2f39 ce9d 1bbd
000001f0: c06b 8a3c 7c94 cd3c 72ef 273d 80ab a7bb
00000200: feec 06bd 526a 29bd 58ea 903c ea1a 643d
00000210: f8df e33c 2011 3dbb 663d 66bd 60be 7c3d
00000220: ce44 5e3d 96a6 543d f819 b13c 6437 89bc
00000230: c8f0 5abc e60c 2cbd 6060 c73b ac0c 16bd
00000240: 008b 373a 6447 a7bc 583f 823c 3816 5b3c
00000250: 2415 08bd 22ab 35bd 80dd d43c 18bb 5b3d
00000260: e488 7d3d 1c0a cabc 0c56 283d c00d 5bbd
00000270: 7025 02bc a89f 57bd 526a 463d b06f cdbb
00000280: 3c81 c4bc 101b 673d 1cf7 da3c a843 0fbd
00000290: 0c74 bebc 7c66 cabc 3649 53bd 127c 1c3d
000002a0: ecdd fa3c 0876 583d d81e 293c f8a8 65bc
000002b0: 14cc fb3c bc49 6e3d a857 413c 94a5 ee3c
000002c0: f4a6 0bbd 3064 71bc 6c7e 5ebd f0e7 a23b
000002d0: c0a3 7abc 4448 a83c 307e 9abb 7600 0dbd
000002e0: 845c c7bc 0867 86bc cab6 72bd 2a3b 2cbd
000002f0: 2c19 6bbd 82a9 5d3d 803e 31bd c84a 7c3d
00000300: 4c7c 4c3d c07b 59bd 308f 33bd b8be 62bc
00000310: 58d5 033d f0f1 f13b d046 20bd c01d 6bbc
00000320: 3c9f 25bd b428 5dbd 903a ff3c e2f4 1dbd
00000330: 0092 26bb 00ff 1dbd 88d7 66bd 0e91 50bd
00000340: 4ca2 593d d0d4 29bc 5810 e93c 5cb9 863c
00000350: f8f1 8f3c 0824 6d3c 6871 87bc 7439 a8bc
00000360: 50b6 d2bc 08ea 21bd 7c63 0c3d 00aa 47bc
00000370: a043 35bd 809c a0ba f6b2 0cbd 786d 02bc
00000380: e4b5 733d 0c23 ae3c 8211 283d 4095 623b
00000390: a8f9 733c 60bb 6e3b 98e5 2cbd f4fd 6e3d
000003a0: 7086 38bc ee5c 513d d858 153c 18bd 3b3d
000003b0: 2a6c 52bd 927a 583d a07d d8bc c84c 133d
000003c0: f0b8 ff3c e024 6d3c 2458 7fbd 446c 8ebc
000003d0: d875 2cbd 1847 09bc 8ab7 273d 1082 e03b
000003e0: de3f 1fbd 94f7 93bc 401a 553c ac98 19bd
000003f0: 9879 0ebc 8adc 7e3d 7640 30bd d226 74bd

weight f4 [1, 256]
-0.043872133 -0.043485336 -0.022912093 -0.02526123 -0.022183418 0.037527777 -0.043101482 0.04459261
0.029132955 0.009291463 0.016137429 0.013260618 0.03441211 -0.055953905 0.032978974 -0.027279712
-0.03366767 -0.05809679 0.0005054772 0.03950026 0.0057624504 -0.027259566 -0.0508387 0.0037535727
0.013798416 -0.008011363 -0.024559014 0.03947363 -0.05318664 -0.014056601 -0.0040597916 0.003895767
7.511675e-05 0.042079493 0.0067930967 0.05025363 0.028153278 -0.004189037 0.05115953 0.01893466
-0.024713881 -0.024907798 -0.055428088 -0.040385358 0.011602901 0.056049645 0.05724089 0.0036603138
-0.04719556 0.0059548765 0.03152799 -0.049362063 -0.023742676 0.04938528 0.027169928 -0.035889782
0.03028395 -0.015463673 -0.05202906 0.056587115 0.018995449 -0.013751775 0.03286031 -0.05091463
0.015012644 0.029812634 0.046701103 0.001637131 0.024382949 0.04585672 -0.021295905 0.0068374276
0.04771933 -0.0100513175 0.038304232 -0.060459927 0.0010316968 -0.0047755092 -0.006004162 0.06216692
-0.040467367 -0.016810127 -0.020241551 -0.039711915 0.03885962 0.024855874 -0.025903955 -0.03116756
0.030588187 0.00025252253 0.0049642846 -0.0067800954 -0.037248813 0.007979266 0.010528982 -0.044791043
0.031489052 0.039424993 -0.023681499 0.029708259 -0.0059223473 -0.037857063 -0.048133112 -0.06147419
-0.048673615 -0.030795574 0.025649525 -0.009141348 0.05708953 0.06094908 -0.026845157 0.028758354
-0.051164463 0.03819055 -0.028280482 -0.0601099 -0.009524383 -0.019709818 -0.057292886 -0.041591734
-0.01604452 0.008083656 0.008082315 -0.022135332 -0.012831993 0.042147674 -0.044210553 0.039104015
-0.0423448 -0.029154576 0.012432076 0.04492966 -0.045217283 -0.044113502 -0.01460433 -0.02620507
0.04031396 0.05305385 -0.05059421 -0.051417686 -0.05846624 -0.058553353 -0.009146854 0.022821791
0.00892178 -0.0063911006 -0.008912668 -0.04802852 -0.014470682 0.026029818 -0.008530296 -0.018325374
0.05593571 -0.041314624 -0.028786711 0.059703216 0.0011932179 -0.05873169 -0.0014491379 -0.05869551
-0.013603963 0.039456457 -0.056586914 -0.057052456 0.013060175 0.0021019354 0.045866057 -0.036026232
0.009934992 -0.021668501 -0.013005145 -0.023931056 -0.03389956 0.06038914 0.053916782 0.010674059
-0.029603958 -0.05702988 -0.055512585 0.010030843 -0.025046736 0.0033554658 -0.0022081062 -0.051895663
-0.0026906803 -0.05678428 -0.0073938817 -0.033673644 0.05561412 0.0066019893 -0.026255615 0.020635888
0.035069518 -0.060064048 -0.059092224 -0.033413805 -0.0067058206 -0.045847394 0.05857119 0.03380584
0.0400507 -0.05481997 -0.042763554 -0.052739464 0.0014959648 0.008687831 0.045018867 0.04367657
-0.05687134 -0.060125135 -0.01711978 0.040962495 -0.059174195 -0.026797563 0.020976998 -0.050656483
-0.06149169 -0.048719727 0.026669502 -0.004144542 -0.016452804 -0.0078326315 0.04045677 -0.03975126
0.025571406 -0.056620017 0.03270535 0.058395363 0.058542863 -0.031427592 -0.03840255 -0.0022441372
0.049640603 -0.01212731 0.028583579 0.03008461 -0.019006446 -0.009589061 -0.0052837357 -0.061308935
0.010677867 -0.041723676 -0.06015578 -0.029510587 -0.05897194 -0.0010291412 -0.001134783 -0.03236579
-0.0039245635 -0.050629668 -0.022414759 0.021937586 0.009417497 0.016080573 -0.044830076 0.038360424
00000000: 44b3 33bd ae1d 32bd 24b2 bbbc a4f0 cebc
00000010: 00ba b5bc bab6 193d 2e8b 30bd bea6 363d
00000020: 3ca8 ee3c 383b 183c a432 843c 1043 593c
00000030: b6f3 0c3d ec2f 65bd f614 073d b479 dfbc
00000040: 1ce7 09bd e6f6 6dbd 0082 043a 06cb 213d
00000050: f0d2 bc3b 744f dfbc 3e3c 50bd 80fe 753b
00000060: c012 623c 1842 03bc fc2f c9bc 1aaf 213d
00000070: 3cda 59bd a84d 66bc 0008 85bb 2050 7f3b
00000080: 0088 9d38 8c5b 2c3d a098 de3b c0d6 4d3d
00000090: b4a1 e63c 3044 89bb a88c 513d dc1c 9b3c
000000a0: c474 cabc 700b ccbc 9008 63bd 1e6b 25bd
000000b0: 181a 3e3c 5094 653d 6c75 6a3d e0e1 6f3b
000000c0: 2250 41bd 2021 c33b 7e23 013d e02f 4abd
000000d0: 0080 c2bc 3848 4a3d 7893 de3c 2a01 13bd
000000e0: 0c16 f83c 585b 7dbc 6c1c 55bd e4c7 673d
000000f0: 589c 9b3c 204f 61bc 8898 063d dc8b 50bd
00000100: 98f7 753c a039 f43c a849 3f3d 0095 d63a
00000110: c0be c73c 42d4 3b3d c074 aebc 800c e03b
00000120: 5875 433d 48ae 24bc e6e4 1c3d d4a4 77bd
00000130: 003a 873a e07b 9cbb 90be c4bb bea2 7e3d
00000140: 1cc1 25bd 64b5 89bc 9cd1 a5bc f6a8 22bd
00000150: 442b 1f3d 8c9e cb3c 8834 d4bc 1c53 ffbc
00000160: 1494 fa3c 0065 8439 70ab a23b 902b debb
00000170: 3692 18bd 78bb 023c c081 2c3c d076 37bd
00000180: aafa 003d 1a7c 213d b4ff c1bc bc5e f33c
00000190: 4010 c2bb 0210 1bbd 3a27 45bd 5ccc 7bbd
000001a0: fc5d 47bd 0047 fcbc f41e d23c 98c5 15bc
000001b0: b6d6 693d bea5 793d 60ea dbbc a496 eb3c
000001c0: d491 51bd b26d 1c3d 78ac e7bc cc35 76bd
000001d0: 280c 1cbc 7c76 a1bc f2ab 6abd 185c 2abd
000001e0: cc6f 83bc 5071 043c b06b 043c 2855 b5bc
000001f0: 483d 52bc 0aa3 2c3d 2016 35bd 882b 203d
00000200: be71 2dbd 94d5 eebc e8af 4b3c 2a08 383d
00000210: c235 39bd 5cb0 34bd 0047 6fbc 04ac d6bc
00000220: 4020 253d fe4e 593d e03b 4fbd 5a9b 52bd
00000230: 4c7a 6fbd a4d5 6fbd b0dc 15bc c4f4 ba3c
00000240: a82c 123c 706c d1bb 7006 12bc 8eb9 44bd
00000250: 7016 6dbc 7c3c d53c a8c2 0bbc 181f 96bc
00000260: d81c 653d 8639 29bd 1cd2 ebbc 5c8b 743d
00000270: c065 9c3a a490 70bd 00f1 bdba b46a 70bd
00000280: 28e3 5ebc 189d 213d aec7 67bd d6af 69bd
00000290: 58fa 553c a0c0 093b 0cde 3b3d 3e90 13bd
000002a0: 60c6 223c 2482 b1bc 8813 55bc 100b c4bc
000002b0: 44da 0abd 9a5a 773d d8d7 5c3d 40e2 2e3c
000002c0: 0084 f2bc 2a98 69bd 2a61 63bd 6858 243c
000002d0: d02e cdbc 60e7 5b3b e0b5 10bb 8c90 54bd
000002e0: 2056 30bb a296 68bd 6048 f2bb 60ed 09bd
000002f0: a2cb 633d 8055 d83b 0416 d7bc 980c a93c
00000300: 0ea5 0f3d b805 76bd b00a 72bd eadc 08bd
00000310: 80bc dbbb 7aca 3bbd 58e8 6f3d fe77 0a3d
00000320: 340c 243d e88a 60bd d628 2fbd 5605 58bd
00000330: 4014 c43a 6857 0e3c b465 383d 34e6 323d
00000340: ecf1 68bd c645 76bd c83e 8cbc 4ac8 273d
00000350: a460 72bd 9086 dbbc f4d7 ab3c 2c7d 4fbd
00000360: b6de 7bbd 568e 47bd 007a da3c f0ce 87bb
00000370: 08c8 86bc 7054 00bc 00b6 253d 38d2 22bd
00000380: 207b d13c 64ea 67bd 0cf6 053d fa2f 6f3d
00000390: a4ca 6f3d 38ba 00bd fe4b 1dbd 6012 13bb
000003a0: f253 4b3d a0b1 46bc 1c28 ea3c 0074 f63c
000003b0: 68b3 9bbc 701b 1dbc 3023 adbb 141f 7bbd
000003c0: 38f2 2e3c 72e6 2abd e865 76bd 30c0 f1bc
000003d0: 908c 71bd 40e4 86ba 00bd 94ba fe91 04bd
000003e0: a099 80bb 0e61 4fbd 289f b7bc 74b6 b33c
000003f0: d84b 1a3c 68bb 833c be9f 37bd d21f 1d3d

weight f4 [1, 256]
-0.0442771 -0.034369074 0.016920075 0.03374943 -0.0060077906 0.031449243 -0.023891956 0.041196577
0.03958053 -0.0069455877 -0.052092284 -0.018171676 0.052467085 0.06161076 -0.057838507 0.06210942
-0.054347478 0.02819924 0.062041447 -0.055583417 0.0013778284 0.00413765 0.062219232 0.019312717
-0.024624906 0.014418945 -0.030921131 0.022276282 0.047357194 -0.051290788 0.023571387 -0.003581062
0.03198596 0.05203172 -0.043096326 0.060930893 0.002772294 0.056117177 0.009746127 -0.04217989
-0.03963831 -0.038092494 -0.060090818 0.027380355 0.04858295 -0.033852376 -0.022981815 0.012686439
0.0127679035 -0.0013966337 -0.0114137605 -0.01865603 0.026742093 -0.036066853 -0.059212178 0.014266007
0.0016914606 0.012467705 -0.02467852 -0.04840876 -0.0032614768 0.021376066 0.02702064 -0.014181629
0.011160143 0.010784075 -0.044003308 0.04542259 -0.028424866 0.017936982 -0.06124021 -0.04063069
-0.034458525 -0.053884625 -0.050666086 0.044003114 0.013274483 -0.004059024 -0.051002212 0.051903307
-0.05808837 0.051188953 -0.05917152 -0.026191711 0.0410683 0.025985897 -0.04293924 -0.05417031
-0.035473183 0.060963593 -0.03231585 0.053561077 -0.048483767 -0.04762236 -0.029344961 -0.028614782
-0.0019366443 0.020039745 0.004847795 -0.05528509 0.014136203 -0.013439812 0.0369068 -0.03534718
-0.03936857 0.031473696 0.055678718 -0.038012065 0.009595633 0.045187443 -0.036213145 0.03262589
-0.036687694 0.027151905 -0.020004496 0.003624387 -0.007828146 0.015319474 -0.011205383 -0.02562733
0.04181529 -0.0482649 -0.025824577 0.02597811 -0.044128187 -0.018717043 0.025450684 -0.023057655
0.015220128 -0.04927475 -0.018905886 -0.021536909 0.048082463 -0.043818414 -0.031569302 -0.06014227
-0.0036351755 -0.03608851 0.0073266253 0.026428781 0.02349224 0.018606886 0.051766172 -0.024408817
0.031652674 0.054653704 0.042091273 0.03826099 -0.0042332783 -0.038617037 -0.016290925 -0.046648078
0.009584911 -0.03855847 -0.0060181245 -0.061673246 0.05095388 -0.05511424 -0.044175148 -0.010035552
0.01110366 0.0616896 0.0056324154 0.016119905 0.00050281733 0.039233796 0.017499298 -0.047737435
-0.023331255 0.017454788 -0.014186189 -0.030452333 -0.048030734 0.044221073 0.0037230924 0.017867856
0.0042846873 0.027829044 -0.02681543 -0.007435687 0.04369487 0.047573544 -0.031269133 0.028978638
0.059254505 0.058287792 -0.044948883 0.0033749938 -0.029297642 0.03848476 -0.034231216 -0.011497356
0.03148718 -0.008127339 -0.0058725476 -0.044770107 0.025945984 0.02171535 0.04633557 -0.01095441
0.002909556 0.018594481 -0.003011763 0.032397024 -0.0030563325 -0.02223111 0.020114064 0.055775426
-0.021711797 -0.0026715025 -0.030180365 -0.0422676 0.05983366 0.019964643 -0.053457975 -0.057865046
0.017556436 -0.043427125 0.045916095 -0.057256453 -0.012429252 -0.021058843 0.04533521 -0.016934156
0.0057781637 0.014744036 -0.04589387 -0.06180308 0.035566166 -0.014789864 -0.048133343 0.027613163
-0.024248369 0.0041482523 -0.009654038 -0.032008074 0.043767527 -0.023369417 -0.020740665 -0.021288298
-0.057281554 0.060625397 0.038963377 -0.00680957 -0.058690205 -0.03625481 0.037674427 -0.005661972
-0.05822508 0.031018808 0.038006045 0.014372066 -0.0072354153 0.04156865 -0.008194089 -0.027270652
00000000: e85b 35bd 96c6 0cbd f89b 8a3c d83c 0a3d
00000010: 00dd c4bb ecd0 003d 10b9 c3bc bebd 283d
00000020: 321f 223d d097 e3bb b85e 55bd c4dc 94bc
00000030: bae7 563d 905b 7c3d 12e8 6cbd 7266 7e3d
00000040: 769b 5ebd 1802 e73c 2c1f 7e3d 70ab 63bd
00000050: 4098 b43a 2095 873b 98d9 7e3d b435 9e3c
00000060: 2cba c9bc 703d 6c3c 504e fdbc c07c b63c
00000070: 9ef9 413d 4a16 52bd c818 c13c 40b0 6abb
00000080: b603 033d 361f 553d c685 30bd ac92 793d
00000090: 60af 353b 20db 653d 38ae 1f3c d2c4 2cbd
000000a0: c85b 22bd e006 1cbd ca21 76bd c44c e03c
000000b0: eafe 463d caa8 0abd 5c44 bcbc c8da 4f3c
000000c0: 7830 513c 400f b7ba c800 3bbc 88d4 98bc
000000d0: 3c12 db3c d6ba 13bd 7888 72bd f8bb 693c
000000e0: 00b4 dd3a 5845 4c3c 9c2a cabc 4448 46bd
000000f0: 80be 55bb dc1c af3c 645a dd3c 105a 68bc
00000100: 08d9 363c b0af 303c d03c 34bd 0a0d 3a3d
00000110: 44db e8bc 94f0 923c 04d7 7abd 5e6c 26bd
00000120: 6224 0dbd 20b6 5cbd 3e87 4fbd 9c3c 343d
00000130: 387d 593c 9001 85bb b2e7 50bd 9098 543d
00000140: 12ee 6dbd 82ab 513d d65d 72bd 0090 d6bc
00000150: 3c37 283d 60e0 d43c 0ee1 2fbd b0e1 5dbd
00000160: 544c 11bd f6b4 793d a05d 04bd dc62 5b3d
00000170: ea96 46bd aa0f 43bd d864 f0bc 8c69 eabc
00000180: 00d7 fdba 642a a43c 40da 9e3b 9e72 62bd
00000190: 889b 673c a832 5cbc 962b 173d 34c8 10bd
000001a0: f040 21bd 90ea 003d 5e0f 643d 8ab2 1bbd
000001b0: 0037 1d3c 7816 393d 3c54 14bd baa2 053d
000001c0: d645 16bd ac6d de3c 78e0 a3bc 2087 6d3b
000001d0: a041 00bc 88fe 7a3c c896 37bc 68f0 d1bc
000001e0: 8246 2b3d 6ab1 45bd 108e d3bc 0cd0 d43c
000001f0: c2bf 34bd 7c54 99bc f47d d03c 68e3 bcbc
00000200: d85d 793c 52d4 49bd 84e0 9abc 2c6e b0bc
00000210: 1ef2 443d f07a 33bd d04e 01bd be57 76bd
00000220: 203c 6ebb 8cd1 13bd 3014 f03b 2c81 d83c
00000230: cc72 c03c 786d 983c c408 543d 00f5 c7bc
00000240: 3ca6 013d 90dc 5f3d e667 2c3d 8eb7 1c3d
00000250: 50b7 8abb e62c 1ebd 8c74 85bc 0e12 3fbd
00000260: 080a 1d3c 7cef 1dbd b033 c5bb 169d 7cbd
00000270: 04b5 503d 78bf 61bd 00f1 34bd 286c 24bc
00000280: 20ec 353c 3cae 7c3d 2090 b83b e40d 843c
00000290: 80cf 033a 9eb3 203d b05a 8f3c 5488 43bd
000002a0: 3021 bfbc 58fd 8e3c 306d 68bc 2c77 f9bc
000002b0: e0bb 44bd 2821 353d 20ff 733b 9c5f 923c
000002c0: 9066 8c3b bcf9 e33c 08ac dbbc 10a7 f3bb
000002d0: 64f9 323d 7adc 423d 1014 00bd 9c64 ed3c
000002e0: dab4 723d 2ebf 6e3d 521c 38bd 002f 5d3b
000002f0: 9c01 f0bc 32a2 1d3d 0836 0cbd 685f 3cbc
00000300: b4f8 003d 8828 05bc 806e c0bb dc60 37bd
00000310: ac8c d43c 64e4 b13c 5eca 3d3d 207a 33bc
00000320: 40ae 3e3b 7453 983c 0061 45bb beb2 043d
00000330: c04c 48bb 041e b6bc 40c6 a43c c674 643d
00000340: f0dc b1bc 6014 2fbb d03c f7bc ca20 2dbd
00000350: 2414 753d e48c a33c c0f6 5abd e603 6dbd
00000360: 84d2 8f3c a4e0 31bd 8412 3c3d be85 6abd
00000370: 10a4 4bbc 9883 acbc 6ab1 393d 80b9 8abc
00000380: c056 bd3b f890 713c 36fb 3bbd 3a25 7dbd
00000390: d4ad 113d 3051 72bc 7827 45bd 0035 e23c
000003a0: 84a4 c6bc 10ee 873b f82b 1ebc e61a 03bd
000003b0: 9445 333d 3871 bfbc 54e8 a9bc cc64 aebc
000003c0: 10a0 6abd 5652 783d 1098 1f3d d022 dfbb
000003d0: 2465 70bd ec7f 14bd 8050 1a3d 1088 b9bb
000003e0: 6c7d 6ebd 281b fe3c 3aac 1b3d d078 6b3c
000003f0: 1017 edbb e443 2a3d 8040 06bc b466 dfbc
