state_agent/imitation_model_no_jit.pt (torch, 731515 bytes, 11 tensors)

layer_1.weight f4 [512, 17]
00000000: a34f 94bc 553d 6c3c e002 e2bc 6d10 053e
00000010: 4949 dabd dacd e73d ceeb d4bd a1f7 cdbd
00000020: a23b 013d 905a 893c c5d0 553d fb3a 063d
00000030: 27b0 42be bead 8cbf 82cf 4ebd 4dad 4d3d
00000040: f2bd 3bbd 5d8c 903d 49fd debc 4956 7d3c
00000050: b7cf e93d c946 a8bc a8f8 203d ae34 053e
00000060: aa82 9fbd 541c 1b3d 91a0 96bd f670 163e
00000070: 8fe1 823d ea80 4bbe f651 953f e27a 063e
00000080: 8190 253e 6dd4 243e 4b18 053e 28ab bb3b
00000090: 1ece 33be 08c5 bf3c 84c6 f2bd b208 9dba
000000a0: 1861 78bc c3ed a5bd 26b8 4dbd 48ae dd3d
000000b0: 8b34 0ebd be58 35bc 94f7 01bd ead0 a03f
000000c0: a35e 2b3e 3d70 5d3e 0afd 1b3e e982 cd3c
000000d0: 9028 223d 1484 843e 8e82 b9bd 8a88 2abe
000000e0: f136 80bd dd94 033e 0162 533d b6de 27be
000000f0: 803a 103e 7322 443e cca2 20bd a099 cf3c
00000100: 9933 5fbf a6a0 28be 799f ea3c 5078 ec3c
00000110: a82a 1bbe 9a46 a93d 5847 433f 072c bf3e
00000120: 2178 4abd fb7a f8bd c659 103e b8e0 323d
00000130: 75ea 2f3e b9c9 26be ce2a 493d 7334 e43c
00000140: f199 783d f99a 3fbf 9f8a 1e3c abf1 e63d
00000150: af62 9cbe ac3f 95bd 2b43 a3bd 158a 493e
00000160: d3c9 323e c8fb 313d d9a5 adbd 71f4 e13d
00000170: b8a1 e93d e75b 193e e36f 4c3c f48c e73c
00000180: afc2 c73d 34bc 503d d00f 833f e8bc 11be
00000190: 7913 4b3e 53b3 d4be fcba 75b8 8b99 c5bd
000001a0: 17a8 90bd 5d07 9f3d 7658 313c 319a 083e
000001b0: d2f4 843d 3b7d 9dbc 87b6 0b3e 2f0d 09be
000001c0: edd0 a53d ce73 82bc 6fbe 8bbd cdb5 9a3f
000001d0: d6d2 a5be c2ba 873d 62fb 1ebd 8fb2 3e3e
000001e0: c1d5 8fbd bec6 d1bd f0f5 523e cce8 8ebd
000001f0: 250d f03d b894 b2bd 458d 8c3c 2b53 b23d
00000200: 7a65 8abd ff3e cc3d 7375 18bd b3bf 423d
00000210: a804 5dbf 7a7f a3be 9a5c 173d 2ade 3dbe
00000220: 693f b53d 635b 8fbc 07f9 bd3b ae51 b83d
00000230: b54c d5bc 8bf3 4abd 80a9 113d b338 083e
00000240: 428f 953d 92d2 a1bc f8f5 67bd e14e d53b
00000250: 2bfd c6bd 24d4 81bf 2c98 4d3d 020d f3bb
00000260: 7b56 d4bd 28cf c73d 5869 b83d e61b 903e
00000270: 3dfe e3be 2d0b c9bd bd95 fdbd ab5b 35ba
00000280: 34f6 2c3d 9d3f d23d 6bba e3be f5bf 7a3e
00000290: cca1 253d 492c 143d 43d6 a93e 7b77 9d3f
000002a0: 7464 043f ae20 853e f232 b83c 2f86 9abd
000002b0: 8c59 46bd 5fe4 a33c e2c9 b8bd 7e3f 32bd
000002c0: b337 debd 3419 b0bc 12d3 1d3e 30e6 00bd
000002d0: 0fac 1e3d e7a7 ea3b 9f57 0e3e 3f1e 8fbf
000002e0: a4bc 48be 9774 54bd 0e80 a33d 4755 b63d
000002f0: b802 e13d e979 9cbe 1e1e 79be 663c 35be
00000300: 7016 8b3d 493e f23d 068a d8bd 08cc 7fbc
00000310: 82ba e03d a19b 46bd 62e6 8f3d a89f e0bc
00000320: d1f6 89bf ce71 0a3e d3c0 e2bd 2ff9 573e
00000330: d6a4 9bbd baaa 66bc 8a3f e03d 90e6 44bd
00000340: 3a9c bbbc f483 d13d 9223 74bc e039 42bc
00000350: 56bf 873d 3d5b 08be 06f3 853d f69f 78bc
00000360: 680b f03d c2fa 9cbf 10cb 933d f250 083e
00000370: cde7 91bd 733b 67bd 9a30 a03d 5e2c 4fbe
00000380: 029c 573e c358 ddbd df76 abbd 6d48 92bd
00000390: ca95 6d3d 3c20 37bd a9dc 80bc 0205 033d
000003a0: 9245 c3bd 868c 1b3c 11e8 5dbf 84a7 e1bc
000003b0: c2ff 4ebd dffb c93c 661a 08be 0c90 213d
000003c0: 2c8f 873d 2040 c2bd bb11 f5bd ff21 66bc
000003d0: e6ce 133e 1e29 d53d 70f2 d5bd 01be d4bd
000003e0: 3436 2e3e 58c0 173d b1f0 513d ef9e 8abf
000003f0: 46f8 4e3e 0cad 86be bf52 863e 6d34 b8ba
-0.01810438 0.01441892 -0.027589262 0.12994547 -0.10658509 0.1131856 -0.10396539 -0.10056997
0.03155101 0.016766816 0.05220105 0.032771092 -0.1901251 -1.0990522 -0.050490864 0.0502141
-0.045835443 0.07058022 -0.027220385 0.0154624665 0.114165716 -0.020541565 0.039299637 0.13008377
-0.07788594 0.037868813 -0.07354844 0.14691529 0.06390678 -0.19873396 1.1665637 0.13132814
0.16168405 0.16096659 0.12997548 0.0057271905 -0.17559096 0.023409382 -0.1185427 -0.0011980741
-0.015159868 -0.0810199 -0.050224446 0.10824257 -0.034718078 -0.011068521 -0.03173025 1.2563756
0.1673532 0.21624847 0.15233245 0.025086837 0.039589465 0.25882018 -0.090581045 -0.16653648
-0.06260479 0.12849756 0.051607136 -0.16393551 0.14084816 0.19153766 -0.039217755 0.025341809
-0.87188107 -0.16467533 0.028640496 0.028865963 -0.15152991 0.08265419 0.76280737 0.37338278
-0.04943097 -0.12132832 0.14096746 0.04367134 0.17179282 -0.16287889 0.049113087 0.027857041
0.060693685 -0.74845845 0.0096766045 0.11276563 -0.3054404 -0.07287535 -0.07971796 0.1968158
0.17459802 0.043453008 -0.084788986 0.110329516 0.114077985 0.14976464 0.012477848 0.028265454
0.0975393 0.050960734 1.02392 -0.14232218 0.19831647 -0.41543064 -5.8586695e-05 -0.096484266
-0.070633106 0.07765076 0.010824313 0.1334007 0.06492008 -0.019224754 0.13643847 -0.13383935
0.0809649 -0.01592436 -0.06823432 1.2086731 -0.32387418 0.06627418 -0.038813956 0.18622802
-0.07023192 -0.10242985 0.2060163 -0.06977996 0.11721257 -0.08719772 0.017157206 0.08707269
-0.06757636 0.09972953 -0.037221383 0.0475461 -0.8633523 -0.31933194 0.036953546 -0.1854178
0.08849985 -0.017499631 0.0057975086 0.08999954 -0.026037553 -0.049548667 0.03556204 0.13302879
0.07302715 -0.019753728 -0.05663106 0.0065096472 -0.09716257 -1.0142865 0.05019395 -0.007417322
-0.10368057 0.09756309 0.09004468 0.28146285 -0.44529906 -0.09816585 -0.12382076 -0.00069182616
0.042226985 0.102660395 -0.44478163 0.24487288 0.040437505 0.036175046 0.3317128 1.2302088
0.5171578 0.26001495 0.02248523 -0.07545125 -0.048425242 0.020006357 -0.09022881 -0.043517582
-0.108504675 -0.021496393 0.15412548 -0.031469524 0.038738307 0.007161129 0.13900612 -1.1181105
-0.1960321 -0.051869 0.07983409 0.08902984 0.10986847 -0.3056176 -0.24327895 -0.17698821
0.06791389 0.11828286 -0.10573201 -0.01561261 0.109730735 -0.048488263 0.07026364 -0.02741988
-1.0778447 0.13519976 -0.110719346 0.2109115 -0.07599799 -0.01407879 0.10949619 -0.048071444
-0.022901643 0.10230246 -0.014901059 -0.011854619 0.06628291 -0.13316055 0.06540494 -0.015174856
0.117209256 -1.2264025 0.072164655 0.13312128 -0.071242906 -0.05645318 0.0782177 -0.20231768
0.21055606 -0.108079456 -0.08372282 -0.0714272 0.058004178 -0.044708475 -0.015730219 0.031987198
-0.09534754 0.009493953 -0.8668223 -0.027545698 -0.05053688 0.024656234 -0.1329132 0.039444014
0.06619105 -0.09484887 -0.119662724 -0.014046191 0.14434394 0.10408233 -0.10446632 -0.10387803
0.17012864 0.037048668 0.05125493 -1.0829753 0.20211896 -0.263039 0.26235005 -0.001405371

layer_1.bias f4 [512]
00000000: 891d 9ebe c297 ef3d 4515 3e3e 7afe ecbd
00000010: c891 86bc 4c29 0d3e 80c3 ff3c c3ba 4fbc
00000020: f57b 3bbe f271 9dbd ffb9 d5bd 56e1 47bd
00000030: 2b0b 37be 6ad8 4bbd b06d de3c c8ee 1b3c
00000040: 028e 52bb d926 683e 603f afbd 20f2 ad3d
00000050: a285 82bd 3388 0b3d ba70 95bd 709b 233d
00000060: 557a 5b3e 2c97 233e 14ea 543c 4007 a93b
00000070: bfe9 b83d 9ad8 81bd ade3 49bb c03c 4abd
00000080: 19fc c33d 3cb2 1ebe ef81 e43d e6ea 903d
00000090: bb36 97bd cd56 133d 5e4c 853b bff8 18be
000000a0: 9161 753d 88d6 4cbd c8e4 e33d daae 76bd
000000b0: 74d6 36be 2871 21be 9238 673e 4132 af3d
000000c0: e9f4 8c3c 714d 5fbc 232d 19bd 8fb3 d8bd
000000d0: 1a5c 82be 76b8 a4bd 0971 febb abb4 71bc
000000e0: 733b 0fbe a52e b83c 2a61 0e3e c523 23be
000000f0: 4f7b 12be d05a 85bd 42da 2ebe 941b cebd
00000100: 7c47 3dbe 9a18 433e 630e 873b dc53 893e
00000110: 5c25 b23d c23b f3bd 27e0 2e3d 3773 5b3e
00000120: 64c7 2e3d 1b7f 1fbd 49e3 74be a3cb 653d
00000130: dce5 973d 374b bebd e54f 8cbd db6e 70bd
00000140: f861 0a3d 94e3 0dbc 8895 243e 49c1 f1bc
00000150: 1fdd 1b3b 4d47 1dbe 1c27 21bd 9403 e3bd
00000160: 4fbf 93bc c0c6 9c3c 959c 94ba bcd8 acbd
00000170: ea7e cebd d474 493e 3844 0d3e 1a0f ffbd
00000180: e401 47be 553a 7c3b 5d45 b13d d3e3 c33b
00000190: 048f e2bd c43b 00be d5ee 1b3c 58e9 c7bd
000001a0: b066 f93d 4708 11be c835 bdbb a825 ec3c
000001b0: 15f1 09be f455 c8bd 6c22 8a3d a58f 083e
000001c0: aae7 65bd 3ccb d2bd b422 c4bd 97ac 0a3d
000001d0: 4b13 99bd c8fb 44be 2f59 7bba 9392 c3bd
000001e0: 3cd4 843e ad9e 94bd 337d 3a3d efaa b4bd
000001f0: 4e61 28be e428 d6bd 9af7 0ebe 1294 09bd
00000200: 2e67 a5bd 4534 86bd 98cf 873d dd39 76be
00000210: f1a8 b4bd eda5 afbd 105f b23d e400 e73c
00000220: 3cf3 003d f484 493d 395f 61bc 6f68 20bd
00000230: 9d62 0ebe 8164 a4bd 3b99 1dbd 3ffe 74bc
00000240: cd59 5abe 948e 06bd a799 20bd e99c 40be
00000250: 6048 a8bd 2f72 263d 5c5b babd cd94 1abd
00000260: 38a7 013e 56bb 7e3d 23d8 2b3c 7294 893d
00000270: 7b37 b53d 5a0f 46be 8c84 59be 972d 4c3d
00000280: f166 063d 77a0 323e 06e3 75bd 88fb 183b
00000290: 8b6a 3fbd 6373 5fbe e634 24bd a69a fb3c
000002a0: f4cf 62bd 1623 1ebe ce31 383d c64b 043e
000002b0: 82e8 123d 87cc a4bc 0835 77be ad4f 9a3d
000002c0: 7d92 de39 c83d 4bbd 3f98 85bc 9892 5fbd
000002d0: 072e 7c3c 91fb ce3c c3eb cc3d 3da0 2ebe
000002e0: 2720 6abe 5831 38be aa9c 47be 5e71 f73b
000002f0: 6514 80bd d2c9 05be 9387 82bd 9b87 95bd
00000300: 31cd b13d bdc4 01be 56ed e4bd f7d1 43bb
00000310: 8031 58be 73ce 253d a0ed 51bd 78e1 f3bd
00000320: f527 e7bd 59ce c0ba f357 e1bd 1745 0cbd
00000330: 18c7 d6bd 3582 1dbe 0b4f 26be 2df8 46be
00000340: 8830 14bd 58ce aa3e fe1c c5bd 597a c1bd
00000350: 0586 3c3e 2d2f 283e d5c8 353d 5f6f c53d
00000360: e72c 6fbd 6a91 82bd d451 24be 38ae 01be
00000370: 050b b9bd 013b 78be 7f01 e9bd 6161 24be
00000380: 0171 38be 21c5 4fbe f447 37bd e2e8 3dbe
00000390: 9500 9bbd 0e9e 68bd fbe2 713d f4df dabd
000003a0: 58ad dbbc 872a cfbd 100c 093d de84 e4bd
000003b0: ffe8 cebd ebf0 2f3e b378 8fbc f3fb afbd
000003c0: f8ef 07be e07c 0c3d e962 0d3e 2348 5fbd
000003d0: fa96 84bb cdf3 01bd 5f78 1c3d 161e 23be
000003e0: 656a eebb a1db f2bc c7be 623d fa36 42be
000003f0: d77d aa3d de03 07bc 11d7 b03c 8aeb d9bd
-0.3088191 0.116988674 0.18562801 -0.11571975 -0.016426936 0.13785285 0.031221151 -0.012678805
-0.18309005 -0.07687749 -0.104358666 -0.04879888 -0.17875354 -0.049766935 0.027151912 0.009517379
-0.00321281 0.22671069 -0.0855701 0.08493447 -0.06373145 0.034065437 -0.072968915 0.03994316
0.21433385 0.15975636 0.012995262 0.005158335 0.090289585 -0.063401416 -0.0030805871 -0.049374342
0.09569568 -0.15497679 0.11157595 0.07076053 -0.07383486 0.03597145 0.0040679416 -0.14938639
0.0599075 -0.05000928 0.11127621 -0.060225345 -0.17855245 -0.15765822 0.22580174 0.08554507
0.017206626 -0.013629303 -0.03739656 -0.10581123 -0.25460893 -0.08042996 -0.0077649397 -0.014752547
-0.13987522 0.02248318 0.13904253 -0.15931614 -0.14304851 -0.06511462 -0.17075446 -0.10063854
-0.184843 0.19052354 0.004121588 0.26821792 0.08698532 -0.11876632 0.042694237 0.2143067
0.042670622 -0.038939577 -0.23914827 0.056102406 0.07416889 -0.0929169 -0.06851176 -0.05869947
0.033784837 -0.008660216 0.16072667 -0.02951111 0.0023782921 -0.1535923 -0.03934394 -0.11084667
-0.018035559 0.01913774 -0.0011338169 -0.08439776 -0.10082801 0.19673473 0.13795555 -0.12454052
-0.19434315 0.0038486917 0.08655808 0.0059780865 -0.11062434 -0.12522799 0.009517391 -0.09761304
0.12177789 -0.14163314 -0.0057742335 0.02882655 -0.13470872 -0.09782019 0.06744847 0.13336046
-0.056129135 -0.1029267 -0.095769316 0.033856 -0.07474383 -0.19236672 -0.00095881795 -0.09549441
0.25943172 -0.072568275 0.045529556 -0.088216655 -0.16443369 -0.10457018 -0.1396164 -0.033588476
-0.080763206 -0.06552938 0.06631392 -0.2404551 -0.088212855 -0.0857657 0.08709538 0.028198667
0.031481966 0.04919906 -0.013755613 -0.039162096 -0.13904805 -0.08026982 -0.03847621 -0.014953195
-0.21323319 -0.032850817 -0.039209034 -0.18809856 -0.082169294 0.040636238 -0.09099457 -0.037739564
0.12661445 0.062190376 0.010488543 0.06717767 0.08848473 -0.19341794 -0.21241969 0.049848165
0.032813016 0.17444025 -0.06003096 0.0023343284 -0.046732467 -0.2182136 -0.04008951 0.03071339
-0.0553741 -0.15443072 0.044969372 0.1291953 0.035866268 -0.020117057 -0.24141324 0.07534728
0.00042452282 -0.049619466 -0.016307948 -0.054583162 0.015391833 0.02526644 0.100059055 -0.17053314
-0.22863828 -0.17987573 -0.19493356 0.007551356 -0.0625389 -0.1306527 -0.06373515 -0.07301255
0.08681715 -0.12672706 -0.11178081 -0.0029879787 -0.21112633 0.04048009 -0.051252007 -0.11908239
-0.11286918 -0.0014709934 -0.11003103 -0.034245577 -0.10487193 -0.15381701 -0.1624109 -0.19430609
-0.036179096 0.33360553 -0.096246704 -0.09447164 0.184105 0.16424246 0.04438098 0.09640383
-0.05839243 -0.06375392 -0.1604684 -0.12664115 -0.09035305 -0.24241258 -0.113772385 -0.16052772
-0.18011858 -0.20290042 -0.044746354 -0.18545869 -0.075684704 -0.056791358 0.059054356 -0.10687247
-0.026816055 -0.10115533 0.03345877 -0.11158155 -0.10103034 0.17181747 -0.017513609 -0.085929774
-0.13275135 0.034298778 0.13807262 -0.054512154 -0.004046318 -0.031726647 0.038200732 -0.15929446
-0.007275867 -0.029645743 0.05535772 -0.18966284 0.08324783 -0.008240668 0.021586927 -0.10640629

layer_2.weight f4 [256, 512]
00000000: c72e 70bd abe9 143d 3d17 d23c 4ade b8bd
00000010: 702c d1bd 6be1 ef3c 0460 1e3c 41f5 83bd
00000020: bf93 9ebd 9327 923d 7712 e4bd 0f87 5d3c
00000030: 3295 0cbd 3e8d 443b b207 a6bd 8a06 373d
00000040: 357d 833c 0534 ab3c 248d c1bc c9c4 6dbd
00000050: 9b46 4dbd 111f a03d 9db4 debd 911b 0cbd
00000060: 3913 3c3d 389a 9e3d 1084 8dbd 00c9 6cbd
00000070: 6d24 a1bc 8533 04bd a87a 2ebd e413 563b
00000080: b9d2 8b3c fc28 8cbd a5b0 12bd 61f6 8d3d
00000090: a647 a1bb 719a 0c3d 9016 13be 03ce bcbc
000000a0: c217 97bd 8b22 13bd 2583 b4bd 68a1 04be
000000b0: 6d01 c9bc 704e 1ebb 4682 a23d f51c 30bd
000000c0: 9786 083d 52eb 1d3c d8fa 733c d812 b0bb
000000d0: 11df 8cbd 1983 b7bd 01c8 59bd 9001 d3bb
000000e0: bb48 c7bc bd0b 753d 62f8 71bd 3c49 6c3d
000000f0: 4ac8 643c 3d2c b3bd 338e 77bc e2d9 903d
00000100: f18d 16bc 5c48 5b3d 9682 be3c 5a28 f73c
00000110: 1eae 84bc ef2a 4f3c 0ebc f63c e398 4c3c
00000120: b698 1d3d 9656 0c3c 4869 93bc a9fc f63c
00000130: 6acd d43c 0684 553b fd25 51bd b08f dbbc
00000140: 7a06 05be 9671 1e3c 1dc1 2c3d d38f a0bc
00000150: 5d3c 04bd a85d 8abc 04b2 64bd 69a2 a2bc
00000160: d3f1 8fbd 5886 06bd d38e 9a3c 74ac 71bd
00000170: 1c99 d7bd 8d31 c23d f1b7 fd3b 01fc 01bd
00000180: 3d36 8ebd 45a0 e1bc 4408 71bc 0e8c 4d3d
00000190: 8d6f 1dbd 2855 103c 10a3 a3bd 8cfe 983c
000001a0: ae03 783c 839f 98bc 1b7a 993c 722d 513c
000001b0: 85d4 f5bb c756 13bd 26d3 1ebd 5891 083d
000001c0: d94c 14bd 5a5d 21bd 49ac 31bc 3ca3 8a3d
000001d0: 9957 e73c 4f2e 84bd 41e2 d5bd a050 a33b
000001e0: 2326 d43c c9d1 193d f84a de3c 4e99 7d3c
000001f0: c162 60bc 6bd2 f93c adde 88bd e387 a23b
00000200: 1625 b8bc c9e6 1a3d a24d 393d 3387 42bd
00000210: 7c0c 8cbd 714a 8fbb c332 c4bd d80a 053d
00000220: a09c 1dbd ba26 0c3d 913e 01bd 3dce b83b
00000230: 3a76 77bb 0919 4b3d 4f56 4b3c 4f4e beb9
00000240: 4b4f 4b3b 5ae4 d6bc 6549 81bd 15ab 8dbc
00000250: 65a5 883b b483 b43c 6466 1bbd f565 7dbd
00000260: f094 0abe a6d5 5a3c 3002 9a3c 9675 30bd
00000270: 3e6f 0d3d a89c ff3c ccc8 903c 545b b7bb
00000280: dc02 b83d b595 813d 0036 86bd a7c9 0cbc
00000290: 0fe0 fc39 8ce4 cabc f740 3b3d 4f9a 57bd
000002a0: ec78 b23b b904 30bc 39da 4bbd c85b 2c3d
000002b0: cbfa 16bd 7fc8 a83d c3fc a5bc 803e 06be
000002c0: 2db6 a1bd 1e78 4c3d c740 8fbc bcb3 333d
000002d0: 3694 cc3c 620a 223d dcfa 2abd c030 05ba
000002e0: c357 25ba 7611 28bc dc5a bfbc ee38 433c
000002f0: c1f1 75bd 9472 3dbb a9b3 d93c a9f9 1abd
00000300: b390 423b b077 d03c 4dcb 373d 9465 64bd
00000310: 738d 44bd 7c71 e13b 2ee9 163d 5322 783d
00000320: 50d2 efbd b6f9 0bbd 32f3 98bc 755c a0bd
00000330: 6979 de3c 83b0 0cbd 6f27 73bd cd27 02bb
00000340: df94 01bd 452b 6abc e3f9 9fbd 16f8 d6bc
00000350: ab4b 733d 1172 2c3d 530c bcbd 7f98 13be
00000360: 59b9 ad3c 9582 2abd dad7 a1bd 3aa0 afbd
00000370: 7f4f 253d 8f9c fdbc 0db2 23bd 9749 3dbc
00000380: ecd3 dabc 7cd5 1b3d d125 ecbc e0d3 8b3c
00000390: a5de dcbd 8a85 9a3d baae 133d 2560 f73c
000003a0: ca6b 99bd a0ff a73b 7231 17bb 7daa 19bc
000003b0: 6822 0a3a a149 29bc 7aa6 483d e5d6 2ebb
000003c0: 7681 06bc c697 88bc af76 793d 7fae 1e3c
000003d0: ec9d 103d f1a8 97bd 690b 863d 15de 583d
000003e0: b3bb eaba 5c7f abbd f188 a3bd 7409 68bc
000003f0: c4ef 3c3d 3e9c 91bd b8fe c8bd 8b71 a7bc
-0.05863836 0.036355656 0.025645847 -0.09026773 -0.10213554 0.029282292 0.009666447 -0.06443263
-0.07743024 0.071364544 -0.111363344 0.01352097 -0.03432197 0.0029991413 -0.081069365 0.04468397
0.016050914 0.020898828 -0.023626871 -0.058048997 -0.050116163 0.078184254 -0.10874293 -0.034205977
0.04591677 0.07744259 -0.069099545 -0.057808876 -0.01967069 -0.032275695 -0.042597443 0.0032665664
0.017068254 -0.06843755 -0.035812993 0.06931759 -0.0049218712 0.034326974 -0.14364076 -0.023047453
-0.07377578 -0.035921615 -0.08814076 -0.12952197 -0.024536813 -0.002415564 0.07935004 -0.042996366
0.03333148 0.009638624 0.014891349 -0.00537334 -0.06878484 -0.08960552 -0.053169254 -0.0064393952
-0.024326673 0.059825648 -0.059074767 0.05768703 0.013963768 -0.08748672 -0.0151095865 0.07072808
-0.009189115 0.053535804 0.023255628 0.030170608 -0.016196307 0.0126445135 0.030118968 0.012487623
0.038475715 0.008565566 -0.017994538 0.030149775 0.025976855 0.0032579913 -0.05106162 -0.026801914
-0.12990752 0.009670636 0.042176355 -0.01959983 -0.03228413 -0.016890362 -0.05583383 -0.019852834
-0.07028546 -0.032842964 0.018866932 -0.059002355 -0.1052725 0.09482107 0.007742875 -0.03173447
-0.06943939 -0.027542243 -0.014711443 0.050182395 -0.03843646 0.008809365 -0.07990086 0.018676065
0.015137596 -0.018630749 0.018734982 0.012767183 -0.007502141 -0.03597143 -0.038775586 0.033341736
-0.0362061 -0.039395668 -0.010844299 0.06769416 0.028240012 -0.06454145 -0.10443545 0.0049839765
0.025897091 0.037553582 0.027135357 0.015478445 -0.01369542 0.030495843 -0.06683097 0.0049600466
-0.022478621 0.03781775 0.045240052 -0.047492217 -0.06838319 -0.004372888 -0.095799945 0.032481045
-0.038479447 0.03421662 -0.03155381 0.00563982 -0.0037759678 0.049584422 0.012410714 -0.00036297968
0.0031022604 -0.026231933 -0.06312827 -0.017293492 0.004170107 0.022035457 -0.037939444 -0.061864812
-0.13533378 0.013356602 0.018799871 -0.04308089 0.034529917 0.03120263 0.017673872 -0.005595604
0.089849204 0.063273825 -0.065532684 -0.008593 0.00048232122 -0.024767183 0.045716252 -0.052637395
0.005446544 -0.0107433135 -0.04976866 0.042079717 -0.03686027 0.082413666 -0.020262128 -0.1310978
-0.078960754 0.04991924 -0.017486943 0.04387258 0.024973016 0.039560683 -0.041743144 -0.00050808117
-0.0006307328 -0.010258069 -0.023358755 0.011915429 -0.060045008 -0.0028907405 0.026574926 -0.03783575
0.0029688298 0.025447696 0.044871617 -0.055760935 -0.04798646 0.0068799835 0.03684347 0.06057961
-0.11710036 -0.03417369 -0.018670652 -0.07830135 0.027157502 -0.034348022 -0.05936378 -0.001986015
-0.031636115 -0.014292543 -0.07811334 -0.026241343 0.059398334 0.04210097 -0.09182038 -0.14413641
0.021206545 -0.04162844 -0.079024985 -0.08575483 0.040359017 -0.030958442 -0.039964724 -0.01155319
-0.02671238 0.03804539 -0.028826626 0.017068803 -0.107846536 0.07545002 0.036055304 0.030197212
-0.07491262 0.0051269084 -0.0023070243 -0.0093790265 0.0005269409 -0.010332496 0.04898689 -0.002667838
-0.008209577 -0.016673934 0.0609042 0.009685158 0.035306856 -0.0740527 0.06545145 0.05294617
-0.0017908722 -0.08373901 -0.07985104 -0.01416241 0.046127096 -0.07109879 -0.09814209 -0.020439884

layer_2.bias f4 [256]
00000000: 66db 153d 1dff 9fbc 99e1 023d a4c1 9ebc
00000010: f3ee 26bd 3bd2 223d 37d2 2b3c 223e 23bc
00000020: 77db 153d 903f aebc a9d6 e038 01cc 583c
00000030: f897 cdba 243a f7bc c83c 0fbd ae48 d63b
00000040: 3a18 44bd 6239 233d 8031 943d 33df 1e3d
00000050: 2c38 e73b 63f9 3fba 4162 023d cffb c2bc
00000060: fc08 b7bc 91f4 31bd e68f 363c e3e6 1a3d
00000070: 2f75 2b3b 5a6e 1c3d a035 d7bb 32d0 1cbd
00000080: ab9b 923c 8b1c 4b3d a99e 403c ad32 d03b
00000090: 6424 3dbc 53db 0c3d bdc3 b43c 41bf 6b3c
000000a0: c14a 123d 2f69 b63b 5bf0 5dbc 14d0 743b
000000b0: ba25 213d 89f7 ffbc c451 a13c d485 6d3b
000000c0: 03bf b33c bbbe 36bd 7f21 1fbd 08c7 033d
000000d0: 7930 603c 993a f9bc 06f0 51bc 3fb9 fa3c
000000e0: e85e f13a 3490 c3bb d1a6 6d3d c9a6 ac3c
000000f0: 010e afbc b10c 083c 778c 2c3c 0270 a8bc
00000100: f51f 3bbc 3efa b23c 31c1 1cbd b578 4f3b
00000110: 60af bbbc 689e b23c f254 f2bb e491 31bc
00000120: 5b26 e03a 82ce f3bc aa53 7c3c fa7a 373d
00000130: a095 bfbc e312 c53c 544b 363d f3ca 92bc
00000140: 6803 51bd fefd 0f3d 4bf8 a038 7638 173b
00000150: c931 83bb eff6 053c feb0 483c 2392 703c
00000160: 170a 87bc 6e1a 653c 23a8 5f3a 2bea 97bc
00000170: 11df 30bb e426 1e3d 0554 b73a f76d 8b3c
00000180: c697 2b3d fca4 e93c b494 9d3c f5cf 06bc
00000190: 1c69 80bc 2c8c a23c 5e06 36bc dbf5 bb3c
000001a0: 7407 e3bc b4b5 14bd 6a16 423c 9b12 033c
000001b0: b8be 7d3c 1cad bfbc 04f5 e23b 4816 213d
000001c0: f6a9 d33c 4aaf 0dbd 0ca0 51bc 45a0 5b3c
000001d0: e902 36bd 14ae 5bbc 74c3 1ebd 4b1a 163d
000001e0: 7e16 103d b770 d13c cce6 1ebd 8b45 8bbc
000001f0: 7ad7 2b3d 5bdb c43b f0c0 083d 1a4a c1ba
00000200: c5c8 2f3d 898f 1b3c b7e3 9cbc 3062 2ebd
00000210: f662 2dbd 5c9c e93b 39ce 2dbc c58d e83c
00000220: 96d8 c03c 39ff 2dbc a8a6 0c3d 2cba 293b
00000230: 32da 8dbc 3802 91bc 7d0c ebbb 9744 5c3c
00000240: 0484 74bd eee2 64bc cb71 513c bf58 e1bc
00000250: a89c 02bd 5d79 543d 7bd6 5ebc 0556 0dbd
00000260: a8c5 42bc 5a77 8e3c c3cb 90bc f58c ab3c
00000270: 7c39 2c3d 207a d73c d63c 99bc 31ba 1dbb
00000280: 79ff 803c bfa5 a23c 8339 04bd 936e 2fba
00000290: 1251 693d 2a15 d2b8 ce52 e03c a406 0abd
000002a0: 9cac 583b f467 903c cb21 a0bd d3af 29bd
000002b0: 20b6 64bc a5e4 95bc 8029 85bc 6442 7cbd
000002c0: f6a2 5d3c 84bb 183d 7d10 f33c 65f3 f53c
000002d0: 62d8 3c3c 747b d0bc b631 393c dc9f eb3c
000002e0: 749a 853c 2cec 8d3d 5c33 babc 214f 663c
000002f0: 664d cbbc 1567 073c 34b2 20bc 6b36 1bbc
00000300: d037 6ebb 5428 3c3d 73c1 4d3c 60fc 043d
00000310: a052 d23c 78ce d4bc ade2 5b3c 8274 94bc
00000320: dc3f 703c 0311 87bd 2e02 00bc 2803 083b
00000330: f276 c13c 01e9 923c 11a9 6dbc 438f 953a
00000340: c6c1 ccbc bd5a 16bd 4f58 6e3a a644 cdbc
00000350: 6a57 21bd 2c89 15bc 53ef e93c 3072 533c
00000360: ad90 c8bc 134d 32bd 8bbf 93bc 2263 dabc
00000370: 7c31 2ebc d8e3 433d 47d4 2e3c 07b4 283d
00000380: 1d9f 0c3c 24b5 133d b3f7 083d cd8f 033d
00000390: 862a ad3c 42db ae3c c9bb 8f3c 4c3b 393d
000003a0: e6f7 9b3c 507d 593c 034c b83b 4dff 9a3d
000003b0: 4421 e53c 0c50 233d 5807 8db9 e11a a8bc
000003c0: 4f5a 8e3d 634f 663d 15a6 61bc a0bc bc3b
000003d0: f60f 483d 8fc2 b5bc e5b5 f6bc 91c3 65bd
000003e0: f787 d6bc 3dbe 893a f939 a13b c319 193c
000003f0: 0d7f 9ebc 784d 823c a542 51bd edd6 813c
0.036586188 -0.019530827 0.031953428 -0.019379444 -0.040755223 0.039751273 0.010487131 -0.009963544
0.03658625 -0.021270543 0.00010721136 0.013232232 -0.0015685549 -0.03017909 -0.034970075 0.006539426
-0.047874667 0.039849646 0.07236004 0.038787078 0.0070562568 -0.00073232333 0.031831983 -0.023801712
-0.022343151 -0.043446127 0.0111427065 0.037817847 0.0026162376 0.038191177 -0.006567672 -0.038284488
0.017896494 0.049587768 0.0117565775 0.0063536973 -0.011544321 0.03438885 0.022065992 0.01438886
0.035715822 0.005566738 -0.013546075 0.003735547 0.03934262 -0.031245964 0.01969231 0.0036243098
0.021941667 -0.04461549 -0.038850304 0.032172233 0.013683432 -0.03042345 -0.012813574 0.03060591
0.0018415125 -0.005968118 0.058020417 0.021075623 -0.021368982 0.008303807 0.010531536 -0.020561222
-0.011421193 0.02184784 -0.03827018 0.003165764 -0.022910774 0.02180405 -0.00739538 -0.010838006
0.0017101275 -0.029761557 0.015400806 0.044795014 -0.023386776 0.024056857 0.044505432 -0.01791904
-0.05102864 0.035154335 7.675643e-05 0.0023074425 -0.0040037376 0.008176549 0.0122492295 0.014683279
-0.016484303 0.013983352 0.0008531829 -0.018544277 -0.0026988427 0.038611308 0.0013986832 0.017020209
0.04189279 0.028521053 0.019235946 -0.008228292 -0.01567512 0.01984223 -0.0111099165 0.022944381
-0.027713515 -0.036306098 0.011846164 0.008000041 0.015487365 -0.023397975 0.006926181 0.03932789
0.02583788 -0.034590997 -0.012794506 0.01340491 -0.04443637 -0.013408203 -0.038760617 0.03664617
0.0351777 0.025566442 -0.038794324 -0.017000934 0.04195354 0.0060075945 0.033387125 -0.0014746815
0.042916078 0.009494671 -0.019151552 -0.042574108 -0.042330705 0.007129235 -0.010608249 0.028387913
0.023540776 -0.010619932 0.034338623 0.002589832 -0.017315958 -0.017701253 -0.0071731196 0.0134440875
-0.059696212 -0.01397012 0.012783478 -0.027508138 -0.03188768 0.051873554 -0.013600941 -0.034505863
-0.011887945 0.017390896 -0.017675286 0.020941237 0.04204701 0.02630335 -0.018705767 -0.0024067278
0.015746819 0.019854425 -0.03228141 -0.0006692197 0.05696208 -0.000100175224 0.027383234 -0.03369774
0.0033061868 0.017627694 -0.078189455 -0.041427445 -0.013959438 -0.018297503 -0.01625514 -0.061586753
0.013527622 0.037288204 0.029670948 0.030023286 0.011526199 -0.025449492 0.011303356 0.02876275
0.016309 0.06929812 -0.022729568 0.014056952 -0.02481718 0.008264323 -0.009808112 -0.0094734235
-0.0036349185 0.045936897 0.012558329 0.032467246 0.025674164 -0.025977358 0.013420743 -0.018121962
0.014663663 -0.065950416 -0.00781302 0.0020753834 0.023616288 0.01793337 -0.014505641 0.0011410493
-0.024994742 -0.03670763 0.00090921385 -0.025057148 -0.039390005 -0.009126943 0.028556501 0.012905642
-0.02448305 -0.043530535 -0.01803567 -0.026658598 -0.010631915 0.04782471 0.010670728 0.041187312
0.008582857 0.03606142 0.03343935 0.03211956 0.02113844 0.021344785 0.017545598 0.045222566
0.019039106 0.013274506 0.0056242957 0.07568226 0.027969964 0.03987126 -0.00026899087 -0.02052063
0.06950819 0.056228053 -0.013772507 0.0057597905 0.048843347 -0.0221875 -0.030116031 -0.05609471
-0.02618788 0.0010508966 0.004920241 0.009344521 -0.019347692 0.01590608 -0.051088948 0.015849555

layer_3.weight f4 [128, 256]
00000000: 356d 1c3d 54f3 09bd 3fd9 87bd d214 f23b
00000010: de31 9e3c 1e57 e6bc 834b 973d 0df6 ba3c
00000020: a515 37bd 6fdc 49bd 1789 4b3d c0be dd3c
00000030: 21f7 51bd 5a53 60be 4606 9e3d 5e9f 503d
00000040: 8e0d 9ebd d6c2 f2bc 6eb8 633d 6071 503d
00000050: ebd6 873c e98d f0bb 40a4 50bd fe8e 49bd
00000060: 923f 3e3d a0df 743b b059 283d 8309 40bb
00000070: f090 abbd fc3b ebbd 5550 303c b1fc f83d
00000080: c963 563d 97b2 a53c d341 09bd 64b4 683c
00000090: c8ce a4be c533 993d 26c3 bbbd fafa 993d
000000a0: 5bca ba3d 74a8 52be 13a4 f7bc 66f1 093d
000000b0: 5c1b d33c ba18 13be 1dc1 ba3d 8661 db3d
000000c0: 15b9 19be fc11 35bd 88f3 25bd 7982 0dbc
000000d0: b244 97bd 2dbf ffbc 92ea 06bd ff66 533b
000000e0: b3a1 f3bd 6186 84bc f8bd 753d d1e6 ae3b
000000f0: 2882 833d db30 8ebd b698 38bd d2bc 5739
00000100: ccfb 6a3d f1ff 9bbd 41bb 973c 0340 eb3b
00000110: 56ca 04be 0a3a 5e3d b79d 113e 724d fa3d
00000120: 686f d0bc 9cfd afbe 8a9a 893c 46c1 d7bb
00000130: b79f 3e3e 9226 613d 95a6 cbbb fe1d 413e
00000140: 591f aa3c 56fb ba3b 5dc8 163d 3e1c 86bc
00000150: 316d ff3c 0c5f d1be ed64 363d 923d b2bd
00000160: 9c77 933c 7de1 c3bc e2ce 15bd 3bd6 2cbc
00000170: 161f 84bc 172d 31be fbf6 26bd bcc0 95bc
00000180: 07db 80bc f00e 223c d510 aabc 693e 2fbe
00000190: eb44 143d b73c 04bd 2043 b239 1602 eebc
000001a0: 4b96 243d c643 4f3d ba86 aabd 9c1f 81bc
000001b0: faf2 83be 2593 c83d fa3c a2bd a0e3 60bc
000001c0: f1c0 d3bd 0999 71be afb1 fdbe 8bb6 3abd
000001d0: f1d7 87be d266 dfbd 4a4e adbe cf7f c33c
000001e0: e874 9c3d dde6 12be c48e 07bd 8568 ce3c
000001f0: 547c 10bf 157b a23c 298f 103d 5cf8 9a3d
00000200: cc11 f4bb d751 5d3d 2365 1cbc 9215 953c
00000210: e5c0 f13d 0318 51be fc9b ebbc e82b 8ebd
00000220: 078c f43a 898e ecbc 0cd4 05be 4531 22bc
00000230: 44b6 16be e976 313d 46cb 7dbc bd36 74bc
00000240: af3c 9a3c e724 bbbb bb02 e63c ea13 d8be
00000250: 921f f6bd 5e65 e93c 14f7 90bd 14c1 f1bd
00000260: dcbd 153e 407f 96bd 89e7 043c f502 9d3d
00000270: 8679 b23d e506 1d3d 080f 493d 07fc 733d
00000280: bd4b 3dbe 10f0 c4bd da1f 3dbd 49ca 31bd
00000290: ae12 9abc 5a78 873d b907 5f3d fa7d 83be
000002a0: ef58 323e 3b61 bc3a 7cf6 40be 80e2 5ebe
000002b0: ce3d 13bd b759 843c 8c03 1b3c 353c 5dbd
000002c0: 3a9e 7dbd af92 b7bc ee2f bdbd 2ae7 dbbc
000002d0: 0740 cebd 59d9 4bbd 8769 2bbb 3ed3 dbbd
000002e0: 06ef 0bbe 7243 ac3d a054 92be f303 efbc
000002f0: 9063 fcbb 5c69 e9bc 12fe 83be 2b15 a2bd
00000300: b49a 443d 8a4e 083d 861b b9bd 7007 423d
00000310: 7c4e 07bd 74a6 0c3e fd85 903c d337 b13b
00000320: 0377 933b 027d 23bd 36b7 583d e4d2 9f3d
00000330: d0ea 54bc 66a1 c23c ba9d 09be ad45 103c
00000340: 13f7 e2bb cd0a b73d 136c 0abc 7268 a2be
00000350: fb5c 57be e4cb df3b 71a5 34be fe92 223c
00000360: f77a 2abe 1cc1 5c3d 3010 15be d169 9abc
00000370: 33c3 eb3c d0a0 933c 1eb4 5bbd 6ebc 0fbd
00000380: 2a96 9cbe f7da 40bb 5554 a03d 03c4 913d
00000390: 362e 5d3c ae11 ba3a c673 b43d 844e 9c3d
000003a0: 4b1f e3bc be70 01be 53eb 123e 5014 4cbe
000003b0: 9951 a83b 5545 383d edbd c73d adb2 2fbd
000003c0: b33c 093d e53e 2fbd 86a9 3abd 2174 763b
000003d0: 8dc0 97bd 3889 a13d c9f1 8cbd c4a9 a33d
000003e0: 27c6 a13d 7a25 84bd 361b e53d 1586 f73c
000003f0: 6e73 1ebd cfa2 bbbc 0ce0 6fbc 7f3c 183c
0.038190085 -0.03367932 -0.06633233 0.007387736 0.019310888 -0.028117713 0.073874496 0.022822404
-0.044698376 -0.049282487 0.049691286 0.027068496 -0.05126107 -0.21906796 0.0771604 0.050933234
-0.07717429 -0.02963392 0.055595808 0.050889373 0.016581973 -0.0073411358 -0.05093789 -0.049208634
0.046447344 0.0037364736 0.041101158 -0.0029302544 -0.08377254 -0.114860505 0.01076134 0.12157572
0.052341256 0.02022676 -0.03351004 0.014203165 -0.32189012 0.074805774 -0.09168081 0.07518573
0.091206275 -0.20572072 -0.030229604 0.03367748 0.025769882 -0.14364901 0.09118865 0.107119605
-0.1501201 -0.044206604 -0.040515453 -0.008637064 -0.073861495 -0.03121909 -0.032938547 0.0032257435
-0.11896076 -0.016177358 0.05999562 0.005337574 0.0642131 -0.06942912 -0.04506751 0.00020574339
0.05736904 -0.07617176 0.018521907 0.0071792617 -0.1296781 0.05425457 0.1422032 0.12221803
-0.025443748 -0.34373176 0.016797323 -0.0065843193 0.18615614 0.054968424 -0.0062149265 0.18859097
0.0207669 0.005706231 0.036812175 -0.016370889 0.031179996 -0.40892828 0.044529844 -0.0870315
0.01800137 -0.023911232 -0.036574252 -0.010549123 -0.016128104 -0.17302357 -0.040762883 -0.01828038
-0.01572944 0.009891257 -0.02075998 -0.17113651 0.036198538 -0.032284465 0.00034000818 -0.029053729
0.040182393 0.050601743 -0.08326478 -0.015762143 -0.25771314 0.097936906 -0.079217866 -0.013726145
-0.10339535 -0.23593535 -0.49549624 -0.045584243 -0.26531938 -0.10908283 -0.33848792 0.023864655
0.076394856 -0.1434588 -0.033095136 0.025196323 -0.5643971 0.01983408 0.03529278 0.07566902
-0.0074484106 0.054033127 -0.009545597 0.018198762 0.1180437 -0.20419316 -0.028760903 -0.06941968
0.0018657454 -0.02887656 -0.1306917 -0.009899442 -0.14717966 0.043326292 -0.015490359 -0.014905629
0.018827764 -0.005711186 0.028077474 -0.42202693 -0.1201774 0.028490718 -0.070783764 -0.11804405
0.14623207 -0.0734849 0.008111843 0.0766658 0.08714585 0.038336653 0.0490866 0.059566524
-0.18485923 -0.09616101 -0.046172954 -0.043405805 -0.018807735 0.06614752 0.054450724 -0.2568205
0.17416738 0.0014372239 -0.18844026 -0.2176609 -0.035947613 0.01615606 0.009461295 -0.054012496
-0.061918475 -0.022408811 -0.092376575 -0.026843626 -0.10070806 -0.049767826 -0.0026155428 -0.107336506
-0.13665399 0.08411302 -0.2858019 -0.029176688 -0.0077022985 -0.028492622 -0.25779778 -0.07914194
0.0479991 0.033278026 -0.09038453 0.047370374 -0.033033833 0.13735372 0.017642016 0.005408266
0.0045002713 -0.03991414 0.0529091 0.07803896 -0.012995437 0.023758601 -0.13439074 0.0088056745
-0.006926426 0.08937607 -0.008448618 -0.3172031 -0.21031563 0.0068297256 -0.17641236 0.009922741
-0.1664847 0.0538951 -0.14556956 -0.018849285 0.028779602 0.018021017 -0.05363857 -0.03509181
-0.30583316 -0.0029427388 0.07828585 0.071174644 0.013499787 0.0014195943 0.088111445 0.07632163
-0.027724883 -0.12640664 0.14347582 -0.19929624 0.0051366803 0.044987995 0.09753022 -0.042895008
0.033505153 -0.04278459 -0.045571826 0.003760584 -0.07409773 0.078875005 -0.06882054 0.079913646
0.07899123 -0.064524606 0.11186831 0.030215302 -0.0386843 -0.022904782 -0.014640819 0.009291767

layer_3.bias f4 [128]
00000000: e610 063d bf10 903d c11b 563c eed0 1f3c
00000010: 8f3c 953d 9780 a13c e410 463d 2f0b ae3d
00000020: 2578 433c 572d e8bb 0c84 913d 599d 5b3d
00000030: f438 b23d ba41 9a3d 2dab 843c 341e c0bc
00000040: 527d c8bc 0eb6 b13d 885f 8e3d 4257 be3b
00000050: 37b0 163d 16db ecbc 6131 e23c ae69 87bd
00000060: 0f73 493c 860c 83bd 273b 1ebe 572b 69bd
00000070: 8a60 64bc f857 123d 281b a9bc 5adc 4ebd
00000080: 8c36 063c d56c 853b 3d4f b83c b8ca cc3d
00000090: ee95 12bd c355 ac3d 2937 173d 32df 3bbd
000000a0: e998 273d 7a2a b03c e8cc 49bd fdcf c33d
000000b0: a574 16be 313a 073d 9205 a03d 0764 fc3c
000000c0: 3cb9 a2bd 99ac 3e3d d788 4fbb b24a cfbd
000000d0: 2047 0e3d 5375 603d cf1c 9c3d c178 c5bd
000000e0: eab9 ffbc 7ae5 c4bc 001c a93d 3748 5b3d
000000f0: 4f11 543d fc0d e9bd 8546 09bc 842a 15bd
00000100: 0daf 9239 6199 25bd ce47 a5bd e4d6 193d
00000110: 9820 5cbd a732 2a3d e880 b3bd 2e4a d33c
00000120: c028 03be c99c 4ebd c5a1 64bd d85c 993d
00000130: 3932 0abe 6379 20bd 5462 dc3d 4a25 f53d
00000140: e46d c0bd d8d0 0f3c 5417 dc3d d730 f83d
00000150: 3a94 4a3c c861 6abd 6252 8f3d 70c4 643c
00000160: 48ae 913d 1977 83bd a861 c13d 7ec1 91bd
00000170: 13ac 283d bb7c 63bd bb5a efbd f800 f2b9
00000180: 64cc 173d 49a9 6bbc ba7b a4bc 4d17 e0bc
00000190: e438 003d 83b8 1f3e 71b8 d2bd 7d32 a03d
000001a0: c688 683d d833 193c f49d 5e3d fc85 9c3c
000001b0: 95c5 423d 9800 b43d 9739 ee3b e1de be3d
000001c0: 03a7 8f3d 9845 3a3c f9e2 5fbc 7ef8 2d3c
000001d0: 2851 61bd 6807 623d 59d7 fe3d 1783 9a3d
000001e0: 77c3 b6bb 3d0f 43bd c986 153b 5e65 943c
000001f0: d635 8abc 13bf ea38 435c afbc 22fd f9bc
0.03273096 0.07034444 0.0130681405 0.009754403 0.07286941 0.019714637 0.048355952 0.08498227
0.0119305 -0.007085483 0.07105264 0.053616855 0.08702269 0.075320676 0.016194904 -0.023451902
-0.02447382 0.08677302 0.06951815 0.005808742 0.036789145 -0.028913062 0.027611436 -0.06611954
0.0122954985 -0.06398873 -0.15452252 -0.056926098 -0.013939032 0.035728425 -0.020642832 -0.050503112
0.008191716 0.0040718117 0.022498721 0.09999603 -0.035787515 0.08414795 0.03691784 -0.045867153
0.04091731 0.02150463 -0.04926768 0.09561155 -0.14692934 0.03301448 0.078135625 0.030809416
-0.07945487 0.04655132 -0.0031667256 -0.10121669 0.0347358 0.05479939 0.07622682 -0.096421726
-0.03121658 -0.024035204 0.08257294 0.053535666 0.05177432 -0.113796204 -0.00837863 -0.0364175
0.00027977713 -0.040429477 -0.08070336 0.03755845 -0.05374202 0.041552212 -0.08764821 0.025792208
-0.12808514 -0.05044249 -0.055818338 0.07488412 -0.13495721 -0.039178263 0.10760942 0.11970003
-0.0939596 0.00877782 0.10746637 0.121186905 0.0123644415 -0.057222158 0.06998135 0.01396285
0.0711332 -0.064192005 0.094424546 -0.07116984 0.041179728 -0.055538874 -0.11687227 -0.0004615856
0.037060156 -0.014383622 -0.020078529 -0.02735486 0.031304255 0.1559773 -0.10289086 0.0782213
0.056771062 0.009350739 0.054349855 0.019106857 0.04755171 0.08789176 0.007270049 0.093198545
0.07014277 0.0113691315 -0.013664954 0.010618327 -0.055009037 0.055182844 0.12443418 0.07544535
-0.0055775004 -0.047621954 0.0022815934 0.018114742 -0.016871374 0.0001119358 -0.021406299 -0.030516211

layer_4.weight f4 [64, 128]
00000000: a2a8 28bd 112c 773d 49c7 8cbd 0665 81bd
00000010: 8aa1 603d 7c24 9e3d ec1d ff3d 196b 7f3d
00000020: a7c1 90bb 4724 04bd c8fd a23b 7dfc f13c
00000030: 6067 3cbd ceb9 033e ef19 a5bc acbc 22bd
00000040: 4ee5 48bc 49ec 1f3d bb2a 6439 d81c 083d
00000050: f478 963c bd7c a3bc 72d3 1dbd cc99 bc3b
00000060: 2dde 9b3d 0a1e 213e e6a1 56be a873 43be
00000070: 6d98 3e3c e4eb f93c 8747 183e 966d 1fbe
00000080: fce7 a73d 1c95 fa3c a193 5f3d a34b a9bc
00000090: 100e 2cbd fb60 673d cb6f 0f3e 62a7 59bc
000000a0: 3175 f93b 8cb4 993d e8bf 8abc a8ab 37bd
000000b0: a5e6 b6bd fe80 7e3b e456 d6bb c06c 913d
000000c0: 75b8 573d a9ac 2f3d abbd bbbc 27bd 96be
000000d0: 8cd5 b33c dfd0 9c3c 3ffd e0bc 6b63 af3c
000000e0: f7a8 fcbc aa84 28be 6fb4 7f3c 1249 ac3d
000000f0: 46b9 1fbc 9e76 dabc 5d20 05bd 0108 633c
00000100: c0e2 933d 95e4 4dbc 5da7 25be 3d93 f3bc
00000110: 6959 b03a 918c 9d3d 463c b5bd 0d41 393d
00000120: c122 89bd 1add 363d a6af 0bbe 8fc5 fe3c
00000130: 5939 8bbb 9732 c93c 828a ab3c 1e93 183d
00000140: 7027 41be a6d5 503c 11cc 433b 80d8 68bb
00000150: 53bc 1cbc c5ec 82be d17a 6e3d 60f1 9b3c
00000160: 689b 603d a2e7 bebc 279e db3c 0a92 023e
00000170: 3e6e 473d c222 21bd 2822 a8bc 804b 893d
00000180: 143c e43d ec8b cabd 7f9d 8e3c 74db bfba
00000190: 3b5b 0a3c 0260 5e3c cd65 11be 55e1 b63c
000001a0: 6789 b5bc 51c7 93bd 672e c13d c622 a03c
000001b0: 569d 863b c108 413c 31f1 f53c 7055 af3b
000001c0: 9284 563d 53b8 9ebc aedf 81bc 21b4 1e3d
000001d0: 9680 e73a eb2a 103c 969b 623d 29b6 d03c
000001e0: 5998 6dbc d13d 94bd 3b95 623c d2cd 993c
000001f0: 7c6e 50bd dda4 9bbc 5eac 653b b2b7 cdbd
00000200: 42ac 76bb 5004 153d 1fb6 253d 5703 1bbd
00000210: 6a29 a0bc 5fe7 1c3c 2f1a 2d3e aa70 3a3d
00000220: e067 06bd aaa7 c6bd e30b 273d e23a 973d
00000230: 7167 1c3c f933 293e 7567 973b 8726 043c
00000240: 6b5c 3cbd 4f6a a83c 3950 9bbc 5789 1dbc
00000250: 8c94 883d 2bfe e43b 5770 583c 5f5f 74bd
00000260: 2793 2f3c 87ea 653e 9af3 7abe 6c87 92be
00000270: 2a9d 7e3c 5091 873d 3cc5 e03d 1b79 9dbd
00000280: a300 a53d 4611 01bd 7325 0c3d f324 d43c
00000290: e03a 813c f676 a03d 7a10 193e e200 d3bc
000002a0: a5b7 bd3c 100f 6d3d 30b4 d03c 0268 783d
000002b0: 4aa3 15bc beb6 6d3d dbd4 c9bc e978 87bb
000002c0: ae3a 16bd f798 3abd da02 c1bd 6b87 eebe
000002d0: e5db 8a3d 33e3 983c 2c44 863d cc2e 323d
000002e0: fa1f 583c 4959 6dbe 6bd9 033c d127 37bc
000002f0: 9a56 f43c 7643 163d 9190 4b3d 2af5 913c
00000300: 4647 563d f005 85bd 23be 3ebe 6a05 233d
00000310: cc15 fdbc 933e 8abc b444 0ebe 710a d7bc
00000320: 0259 34bd 3928 253d d419 e4bd f300 993c
00000330: f77f 363d 5b7d 2ebc 7e50 8d3c c530 a73b
00000340: a491 06be 5977 02bd 55fe f93c 8081 ae3b
00000350: 7696 893c 6885 5dbe d28f 533d 68da f63c
00000360: f897 203d 6dfd a2bd ae1a ba3c 635a cebc
00000370: c599 403d e555 98bd 323d 4b3c 788d 9d3d
00000380: 0994 fa3d f599 99bd 79b7 8cbc 8f6a 803c
00000390: 2156 be3b 55f1 5f3d 8d0a e8bd 622a 843d
000003a0: 1a7b 0d3d 934a 03bd 027c 773d 7c30 573d
000003b0: a1b1 af3d 1d47 8039 066a bb3d e770 09bd
000003c0: 1785 903d 97fa f2bc 3882 96bd 73ab 023e
000003d0: 0251 cebd 221d cf3c 19c6 d03c 564f 533d
000003e0: bdd7 053d 711e 5cbd 8aa3 bfbc 2f5c af3d
000003f0: cde8 3ebd 25da b03d b8d7 ec3c b721 d1bd
-0.041176446 0.06034476 -0.06873948 -0.06318097 0.054841556 0.077218026 0.12456879 0.062357996
-0.0044176164 -0.03226116 0.0049741007 0.029539341 -0.045997024 0.12863848 -0.020153968 -0.039730713
-0.012261702 0.0390437 0.00021759693 0.033230633 0.018368222 -0.01995694 -0.038531728 0.0057556387
0.07610736 0.15734115 -0.20960197 -0.19087088 0.011633021 0.03050799 0.14871036 -0.15569147
0.081985444 0.030588679 0.05458415 -0.02066595 -0.0420056 0.056488972 0.1400749 -0.013284536
0.0076128473 0.0750514 -0.016937211 -0.04484144 -0.08930711 0.003883421 -0.00654112 0.071008205
0.052666146 0.04288927 -0.02291759 -0.29441187 0.021952413 0.019142566 -0.027464507 0.02140971
-0.030842287 -0.16456857 0.015606984 0.084123746 -0.0097487625 -0.02666789 -0.032501567 0.013856889
0.072209835 -0.012566705 -0.16177125 -0.029733295 0.0013454381 0.076928265 -0.08849387 0.045228053
-0.06696082 0.044644453 -0.13641223 0.031100063 -0.0042487797 0.024560256 0.02094007 0.037249677
-0.188627 0.01274625 0.0029876272 -0.0035529435 -0.009566384 -0.25571266 0.058222596 0.019035995
0.054835707 -0.02330381 0.026808811 0.12751022 0.04868912 -0.03933979 -0.0205241 0.067038536
0.111442715 -0.09889969 0.017409084 -0.0014637546 0.008444603 0.013572695 -0.1419899 0.022324244
-0.022160245 -0.07215751 0.09432679 0.019547831 0.0041081114 0.011781872 0.030022236 0.005350761
0.052372523 -0.019375002 -0.01585373 0.038746003 0.0017662223 0.008799295 0.05532416 0.025477486
-0.014501655 -0.07238353 0.013829525 0.0187749 -0.050886616 -0.018999511 0.0035045366 -0.10044803
-0.0037639295 0.036381066 0.040456887 -0.037844982 -0.019550998 0.009576648 0.1690452 0.0455176
-0.032813907 -0.09699948 0.04078282 0.07384278 0.009546147 0.16523732 0.0046204873 0.008065826
-0.045986574 0.020558504 -0.018959152 -0.009615264 0.06668958 0.006988307 0.013210378 -0.059661265
0.010716236 0.22452746 -0.24506989 -0.28618944 0.0155404005 0.06619513 0.109751195 -0.07689115
0.08056762 -0.031510614 0.0342154 0.025896525 0.015775144 0.0783519 0.14947692 -0.025757257
0.023158858 0.057875693 0.025476545 0.060646065 -0.009133169 0.058035605 -0.02463763 -0.0041342867
-0.036677055 -0.045556035 -0.09424372 -0.4658769 0.06780223 0.018663025 0.065559715 0.04350166
0.013191218 -0.23178591 0.008047442 -0.011178927 0.029826451 0.03668543 0.049698416 0.017817099
0.052314065 -0.06495273 -0.18627219 0.039800085 -0.030894183 -0.01687554 -0.13893396 -0.026250096
-0.044030197 0.040321562 -0.11137739 0.01867721 0.04455563 -0.010650004 0.017250296 0.0051022493
-0.13141495 -0.0318521 0.030516783 0.005325496 0.016795378 -0.21632922 0.05165083 0.030133441
0.03920743 -0.079584934 0.0227178 -0.025189584 0.047021646 -0.07438258 0.012404727 0.07692999
0.12235267 -0.07500068 -0.01717733 0.015675811 0.005808607 0.05467351 -0.113301374 0.064533964
0.034541227 -0.03205354 0.060420997 0.052536473 0.08578802 0.00024467046 0.09151082 -0.033554938
0.07056635 -0.029660506 -0.07349056 0.12760715 -0.10074045 0.025282446 0.025485085 0.051589333
0.032676447 -0.05373997 -0.023393411 0.085625045 -0.046608735 0.08635358 0.028911456 -0.10211509

layer_4.bias f4 [64]
00000000: b449 473e f779 5f3e 8332 f5bd 91c1 b03d
00000010: 7fc6 58bd 3961 08bd fa88 483d 5a43 debd
00000020: 480b 74bd ba3c af3d 2466 cfbd 4e17 95bd
00000030: 2af2 1fbe d163 d43d 5e87 003e 3962 d6bd
00000040: c35b 9bbd c932 833d 8b6e a33d 60f5 3d3e
00000050: 6b4e e9bc 810b 083e 5856 35bd e223 37be
00000060: befa 44be 23a5 8fbc e2bb e0bd 94f5 ad3e
00000070: fdbf 38be 90e6 5f3e d402 243e b8bf b03d
00000080: a6f7 4dbd e9b6 f0bd dfb4 bfbd 0bd2 453e
00000090: f4d8 e1bd b1ba 1f3e a9f6 173e 418a 9ebd
000000a0: e4a8 a33c 69b8 443e c9c2 933d 956a a1bd
000000b0: d527 d93d 31a4 4bbe a9ed 25be f2b6 8bbd
000000c0: 81c1 b7bd 29c7 4dbd 3792 34be 5d8c d83d
000000d0: 07d6 8d3c 0181 2abd 386f 69bd ee0c dfbd
000000e0: 834e 613e 4cff f4bd 61e5 1b3e a078 803e
000000f0: 63ea 313d 0530 563e a0df fa3d 8325 acbc
0.1946171 0.2182387 -0.11972525 0.0863067 -0.052923676 -0.033295844 0.048958756 -0.1085269
-0.05958107 0.085565045 -0.10126904 -0.07279836 -0.15619722 0.10370601 0.12551638 -0.10467953
-0.075858615 0.06406171 0.07980069 0.18550634 -0.028479775 0.13285638 -0.044271797 -0.17884782
-0.19236276 -0.017534798 -0.10973336 0.33976424 -0.18041988 0.21865296 0.16016704 0.086303174
-0.050285004 -0.11753637 -0.0936067 0.19318406 -0.11027709 0.15598561 0.14840187 -0.077412136
0.019977994 0.19210972 0.07214887 -0.07881657 0.106033005 -0.19886853 -0.16203941 -0.068220034
-0.08972455 -0.050238762 -0.17633902 0.10573647 0.01731397 -0.041626934 -0.056990832 -0.10891138
0.22002606 -0.119627565 0.1522422 0.2509203 0.04343642 0.20916755 0.12249684 -0.02101398

acceleration.weight f4 [1, 64]
00000000: d1b2 af3d 8a76 b03d dabb e5bc f07c a9bd
00000010: 21a2 2cbe 4a07 8ebc b23e 6ebd 26b6 a43d
00000020: 33d9 09be 12ae b7bb d20b 84bf c7f2 353d
00000030: 5740 e9be ae7b 99bd df3f b9bd 9d6c 78bf
00000040: 9c9f a33f 6a86 183d e6eb 123d eae2 adbd
00000050: 0320 893c e95a c43c 7da8 de3e d242 8c3d
00000060: d7d7 fb3b 561b be3c 0a23 183e ed76 eb3d
00000070: 0279 8d3d 755a 5e3d 1e3f a13c 5cf4 1f3d
00000080: a8f5 653d eb69 48bf b86b 5e3d 9236 f5bd
00000090: a00e 92bd 3031 333b 3c3c d43d dcc2 553d
000000a0: 1f9e 59be 8393 f03b 4453 853d 7e79 e73d
000000b0: 6174 ce3c 386c b6be 4522 84bf 0196 1bbe
000000c0: 51b6 85bd bbe9 dbbc c14d 90bf 4057 dfbc
000000d0: 583c 2b3e 2833 fabc c129 b63d 367a 8dbd
000000e0: 1b03 e8bc 3009 6fbe 984b 823e 83d9 843b
000000f0: 84e2 e9bb c39f 393f 997e 9cbc 2461 053e
0.085790284 0.086163595 -0.028043676 -0.08275783 -0.16858722 -0.01733746 -0.05816526 0.080425546
-0.13461761 -0.0056054676 -1.0316107 0.044420984 -0.455569 -0.07494293 -0.090453856 -0.9704073
1.2783084 0.037237562 0.0358695 -0.08490546 0.016738897 0.02396913 0.4348792 0.068486825
0.007685642 0.023206394 0.14857116 0.11497293 0.06907846 0.054285485 0.019683417 0.0390514
0.05614248 -0.7828662 0.054301947 -0.11973299 -0.07131696 0.002734255 0.10363051 0.052187786
-0.21251725 0.0073418035 0.06510022 0.1130247 0.025201978 -0.3562944 -1.0322958 -0.1519394
-0.06528915 -0.02684485 -1.1273729 -0.027263284 0.16722238 -0.030541971 0.08894683 -0.069080755
-0.028321793 -0.23343349 0.25448298 0.0040542497 -0.0071375985 0.725094 -0.019103335 0.13025337

steering.weight f4 [1, 64]
00000000: ef30 80bd 6492 52bd c869 3b3e 6b7f c2bd
00000010: b31e c23b 3144 00bf 270d 4abd 5d86 2b3e
00000020: a1d7 ac3e 4ae5 82be f32c 213d da9d f43e
00000030: 51f7 cf3e 8791 02bf dcc1 88bc 6145 ad3d
00000040: 45d8 1b3f 4fb8 8039 7695 04be 2972 96bd
00000050: 800e e33e 10e8 12be b780 043f 9907 263e
00000060: 6f2d 393e 1f6e a33d ddda b63e f178 bcbc
00000070: f289 ca3e 7cbf f6bc e3ba b2be e488 cdbe
00000080: 58fc cf3d 984b 9f3d e64c 273e 534a d0be
00000090: 3ddb 953e 54ee 9ebd eec4 d3bd ace5 c43d
000000a0: 0545 f1bc 389f febd 7ef5 e0bd b8ae 273e
000000b0: a138 89be 766e 5b3e 3c4e b03d 73d4 093f
000000c0: 836a 253d e7ec 993e 42db 543d 8463 66be
000000d0: 1445 db3d 25ed 1ebf e7b7 a03d 5e16 843d
000000e0: 8e9e d2bc 5373 303f d435 ecbc 137a a7bc
000000f0: d050 f4be 93a4 4f3c 0904 adbe b8de 003f
-0.06259333 -0.05140914 0.18302071 -0.09496959 0.00592407 -0.5010405 -0.04932895 0.16750474
0.33758262 -0.2556556 0.039349508 0.4777668 0.40618375 -0.5100331 -0.016694002 0.084604986
0.60876876 0.00024551383 -0.1294764 -0.07345993 0.44347 -0.14346337 0.51758903 0.16213836
0.18083738 0.07979988 0.35713854 -0.023006888 0.3955837 -0.030120604 -0.34908208 -0.40143502
0.101555526 0.0777809 0.16337928 -0.40681705 0.29268828 -0.07760301 -0.10340296 0.09614119
-0.029451856 -0.12432712 -0.10984324 0.16375244 -0.26801017 0.21428856 0.08608672 0.53839797
0.04038478 0.30063555 0.051966913 -0.224989 0.10706535 -0.62080604 0.078475766 0.06449579
-0.02571037 0.6892597 -0.028834261 -0.020443952 -0.47717905 0.012673515 -0.3379214 0.5033984

brake.weight f4 [1, 64]
00000000: 9f2b 23bd af87 74bd 548f a83e 010d dabc
00000010: a674 b0bd 4983 a03e a612 6d3e d549 143d
00000020: 1cdd 743e 5e1c 11be cb5d 0a40 a117 c0be
00000030: c5d2 ad3d ab20 b23c f8f1 a1bd 041e 0140
00000040: bc3a b6bf 2df1 43be f86d d83d 6c01 0bbe
00000050: e38c 523d 87c7 d2bd 0d29 e3be d23e 953e
00000060: 6842 a03e fd81 10be 4e62 c7be cb92 71be
00000070: dc2f 703e a470 e8bd f99e 0a3c ae6c 09bd
00000080: d533 5bbe 6d02 ea3f f7be 8fbe a13a 4e3e
00000090: 3be4 f23d c3c6 37be 2b8e b0bc c7a8 b63c
000000a0: af10 703e cbc9 9ebe ece0 0dbc 86a3 bc3d
000000b0: 8303 97bd 3bbf 9e3e 43d6 cb3f 0321 8f3d
000000c0: 4084 2ebe e9e2 6dbe d31c e93f 3cdb 86be
000000d0: 8161 11bc bafc be3e 939a 45be 8cc1 8c3e
000000e0: e2a6 a8bd 4223 5d3e 9922 ec3d 970a 82bd
000000f0: e619 d73d 5f45 8dbf 332e 7d3e 94fe 0cbf
-0.039836522 -0.05969971 0.3292185 -0.026617529 -0.08615999 0.31350163 0.23151645 0.036203224
0.23912472 -0.14170977 2.1619747 -0.37518027 0.08487467 0.021744093 -0.0790748 2.017457
-1.4236674 -0.1913497 0.1056785 -0.13574761 0.05140389 -0.10291963 -0.44367257 0.2914949
0.31300664 -0.14112087 -0.38942188 -0.23591153 0.23455757 -0.113496095 0.008460754 -0.03355091
-0.21406491 1.828199 -0.28075382 0.20139553 0.11859938 -0.17946915 -0.021552166 0.022297276
0.23443864 -0.3101333 -0.008659583 0.09210877 -0.07373717 0.31005272 1.5924762 0.06988718
-0.17042637 -0.2323109 1.8211921 -0.26339138 -0.008873344 0.3730219 -0.19297247 0.27491415
-0.08234955 0.21595481 0.115300365 -0.06349676 0.105029866 -1.1036795 0.24724655 -0.55075955
